…
    model_size_max = get_model_size(teacher_model)/1024**2 + 1
    gen_series_legodnn_models(deadline=100, model_size_search_range=[model_size_min, model_size_max], target_model_num=100, optimal_runtime=optimal_runtime, descendant_models_save_path=descendant_models_dir_path, device=device)
2023-06-26 19:06:02,671 - log.py[40] - DEBUG: entry file content: ---------------------------------
2023-06-26 19:06:09,077 - block_extractor.py[28] - INFO: save pruned block block-0 (sparsity 0.0) in results/legodnn/image_classification/resnet18_cifar100_0-125/compressed/block-0-0.pt
2023-06-26 19:06:09,077 - block_extractor.py[29] - DEBUG: LegoDNNBlock(
  (bn1): BatchNorm2d(64, eps=1e-05, momentum=0.1, affine=True, track_running_stats=True)
  (relu1): ReLU()
  (layer1): ModuleDict(
    (0): ModuleDict(
      (conv1): Conv2d(64, 64, kernel_size=(3, 3), stride=(1, 1), padding=(1, 1), bias=False)
      (bn1): BatchNorm2d(64, eps=1e-05, momentum=0.1, affine=True, track_running_stats=True)
      (relu1): ReLU()
      (conv2): Conv2d(64, 64, kernel_size=(3, 3), stride=(1, 1), padding=(1, 1), bias=False)
      (bn2): BatchNorm2d(64, eps=1e-05, momentum=0.1, affine=True, track_running_stats=True)
    )
  )
)
2023-06-26 19:06:09,368 - block_extractor.py[28] - INFO: save pruned block block-0 (sparsity 0.2) in results/legodnn/image_classification/resnet18_cifar100_0-125/compressed/block-0-2.pt
2023-06-26 19:06:09,368 - block_extractor.py[29] - DEBUG: LegoDNNBlock(
  (bn1): BatchNorm2d(64, eps=1e-05, momentum=0.1, affine=True, track_running_stats=True)
  (relu1): ReLU()
  (layer1): ModuleDict(
    (0): ModuleDict(
      (conv1): Conv2d(64, 52, kernel_size=(3, 3), stride=(1, 1), padding=(1, 1), bias=False)
      (bn1): BatchNorm2d(52, eps=1e-05, momentum=0.1, affine=True, track_running_stats=True)
      (relu1): ReLU()
      (conv2): Conv2d(52, 64, kernel_size=(3, 3), stride=(1, 1), padding=(1, 1), bias=False)
      (bn2): BatchNorm2d(64, eps=1e-05, momentum=0.1, affine=True, track_running_stats=True)
    )
  )
)
2023-06-26 19:06:09,629 - block_extractor.py[28] - INFO: save pruned block block-0 (sparsity 0.4) in results/legodnn/image_classification/resnet18_cifar100_0-125/compressed/block-0-4.pt
2023-06-26 19:06:09,629 - block_extractor.py[29] - DEBUG: LegoDNNBlock(
  (bn1): BatchNorm2d(64, eps=1e-05, momentum=0.1, affine=True, track_running_stats=True)
  (relu1): ReLU()
  (layer1): ModuleDict(
    (0): ModuleDict(
      (conv1): Conv2d(64, 39, kernel_size=(3, 3), stride=(1, 1), padding=(1, 1), bias=False)
      (bn1): BatchNorm2d(39, eps=1e-05, momentum=0.1, affine=True, track_running_stats=True)
      (relu1): ReLU()
      (conv2): Conv2d(39, 64, kernel_size=(3, 3), stride=(1, 1), padding=(1, 1), bias=False)
      (bn2): BatchNorm2d(64, eps=1e-05, momentum=0.1, affine=True, track_running_stats=True)
    )
  )
)
2023-06-26 19:06:09,898 - block_extractor.py[28] - INFO: save pruned block block-0 (sparsity 0.6) in results/legodnn/image_classification/resnet18_cifar100_0-125/compressed/block-0-6.pt
2023-06-26 19:06:09,898 - block_extractor.py[29] - DEBUG: LegoDNNBlock(
  (bn1): BatchNorm2d(64, eps=1e-05, momentum=0.1, affine=True, track_running_stats=True)
  (relu1): ReLU()
  (layer1): ModuleDict(
    (0): ModuleDict(
      (conv1): Conv2d(64, 26, kernel_size=(3, 3), stride=(1, 1), padding=(1, 1), bias=False)
      (bn1): BatchNorm2d(26, eps=1e-05, momentum=0.1, affine=True, track_running_stats=True)
      (relu1): ReLU()
      (conv2): Conv2d(26, 64, kernel_size=(3, 3), stride=(1, 1), padding=(1, 1), bias=False)
      (bn2): BatchNorm2d(64, eps=1e-05, momentum=0.1, affine=True, track_running_stats=True)
    )
  )
)
2023-06-26 19:06:10,166 - block_extractor.py[28] - INFO: save pruned block block-0 (sparsity 0.8) in results/legodnn/image_classification/resnet18_cifar100_0-125/compressed/block-0-8.pt
2023-06-26 19:06:10,166 - block_extractor.py[29] - DEBUG: LegoDNNBlock(
  (bn1): BatchNorm2d(64, eps=1e-05, momentum=0.1, affine=True, track_running_stats=True)
  (relu1): ReLU()
  (layer1): ModuleDict(
    (0): ModuleDict(
      (conv1): Conv2d(64, 13, kernel_size=(3, 3), stride=(1, 1), padding=(1, 1), bias=False)
      (bn1): BatchNorm2d(13, eps=1e-05, momentum=0.1, affine=True, track_running_stats=True)
      (relu1): ReLU()
      (conv2): Conv2d(13, 64, kernel_size=(3, 3), stride=(1, 1), padding=(1, 1), bias=False)
      (bn2): BatchNorm2d(64, eps=1e-05, momentum=0.1, affine=True, track_running_stats=True)
    )
  )
)
2023-06-26 19:06:10,195 - block_extractor.py[28] - INFO: save pruned block block-1 (sparsity 0.0) in results/legodnn/image_classification/resnet18_cifar100_0-125/compressed/block-1-0.pt
2023-06-26 19:06:10,195 - block_extractor.py[29] - DEBUG: LegoDNNBlock(
  (layer1): ModuleDict(
    (0): ModuleDict(
      (relu2): ReLU()
    )
    (1): ModuleDict(
      (conv1): Conv2d(64, 64, kernel_size=(3, 3), stride=(1, 1), padding=(1, 1), bias=False)
      (bn1): BatchNorm2d(64, eps=1e-05, momentum=0.1, affine=True, track_running_stats=True)
      (relu1): ReLU()
      (conv2): Conv2d(64, 64, kernel_size=(3, 3), stride=(1, 1), padding=(1, 1), bias=False)
      (bn2): BatchNorm2d(64, eps=1e-05, momentum=0.1, affine=True, track_running_stats=True)
    )
  )
)
2023-06-26 19:06:10,463 - block_extractor.py[28] - INFO: save pruned block block-1 (sparsity 0.2) in results/legodnn/image_classification/resnet18_cifar100_0-125/compressed/block-1-2.pt
2023-06-26 19:06:10,463 - block_extractor.py[29] - DEBUG: LegoDNNBlock(
  (layer1): ModuleDict(
    (0): ModuleDict(
      (relu2): ReLU()
    )
    (1): ModuleDict(
      (conv1): Conv2d(64, 52, kernel_size=(3, 3), stride=(1, 1), padding=(1, 1), bias=False)
      (bn1): BatchNorm2d(52, eps=1e-05, momentum=0.1, affine=True, track_running_stats=True)
      (relu1): ReLU()
      (conv2): Conv2d(52, 64, kernel_size=(3, 3), stride=(1, 1), padding=(1, 1), bias=False)
      (bn2): BatchNorm2d(64, eps=1e-05, momentum=0.1, affine=True, track_running_stats=True)
    )
  )
)
2023-06-26 19:06:10,732 - block_extractor.py[28] - INFO: save pruned block block-1 (sparsity 0.4) in results/legodnn/image_classification/resnet18_cifar100_0-125/compressed/block-1-4.pt
2023-06-26 19:06:10,732 - block_extractor.py[29] - DEBUG: LegoDNNBlock(
  (layer1): ModuleDict(
    (0): ModuleDict(
      (relu2): ReLU()
    )
    (1): ModuleDict(
      (conv1): Conv2d(64, 39, kernel_size=(3, 3), stride=(1, 1), padding=(1, 1), bias=False)
      (bn1): BatchNorm2d(39, eps=1e-05, momentum=0.1, affine=True, track_running_stats=True)
      (relu1): ReLU()
      (conv2): Conv2d(39, 64, kernel_size=(3, 3), stride=(1, 1), padding=(1, 1), bias=False)
      (bn2): BatchNorm2d(64, eps=1e-05, momentum=0.1, affine=True, track_running_stats=True)
    )
  )
)
2023-06-26 19:06:10,998 - block_extractor.py[28] - INFO: save pruned block block-1 (sparsity 0.6) in results/legodnn/image_classification/resnet18_cifar100_0-125/compressed/block-1-6.pt
2023-06-26 19:06:10,998 - block_extractor.py[29] - DEBUG: LegoDNNBlock(
  (layer1): ModuleDict(
    (0): ModuleDict(
      (relu2): ReLU()
    )
    (1): ModuleDict(
      (conv1): Conv2d(64, 26, kernel_size=(3, 3), stride=(1, 1), padding=(1, 1), bias=False)
      (bn1): BatchNorm2d(26, eps=1e-05, momentum=0.1, affine=True, track_running_stats=True)
      (relu1): ReLU()
      (conv2): Conv2d(26, 64, kernel_size=(3, 3), stride=(1, 1), padding=(1, 1), bias=False)
      (bn2): BatchNorm2d(64, eps=1e-05, momentum=0.1, affine=True, track_running_stats=True)
    )
  )
)
2023-06-26 19:06:11,260 - block_extractor.py[28] - INFO: save pruned block block-1 (sparsity 0.8) in results/legodnn/image_classification/resnet18_cifar100_0-125/compressed/block-1-8.pt
2023-06-26 19:06:11,261 - block_extractor.py[29] - DEBUG: LegoDNNBlock(
  (layer1): ModuleDict(
    (0): ModuleDict(
      (relu2): ReLU()
    )
    (1): ModuleDict(
      (conv1): Conv2d(64, 13, kernel_size=(3, 3), stride=(1, 1), padding=(1, 1), bias=False)
      (bn1): BatchNorm2d(13, eps=1e-05, momentum=0.1, affine=True, track_running_stats=True)
      (relu1): ReLU()
      (conv2): Conv2d(13, 64, kernel_size=(3, 3), stride=(1, 1), padding=(1, 1), bias=False)
      (bn2): BatchNorm2d(64, eps=1e-05, momentum=0.1, affine=True, track_running_stats=True)
    )
  )
)
2023-06-26 19:06:11,290 - block_extractor.py[28] - INFO: save pruned block block-2 (sparsity 0.0) in results/legodnn/image_classification/resnet18_cifar100_0-125/compressed/block-2-0.pt
2023-06-26 19:06:11,290 - block_extractor.py[29] - DEBUG: LegoDNNBlock(
  (layer2): ModuleDict(
    (0): ModuleDict(
      (conv1): Conv2d(64, 128, kernel_size=(3, 3), stride=(2, 2), padding=(1, 1), bias=False)
      (bn1): BatchNorm2d(128, eps=1e-05, momentum=0.1, affine=True, track_running_stats=True)
      (relu1): ReLU()
      (conv2): Conv2d(128, 128, kernel_size=(3, 3), stride=(1, 1), padding=(1, 1), bias=False)
    )
  )
)
2023-06-26 19:06:11,500 - block_extractor.py[28] - INFO: save pruned block block-2 (sparsity 0.2) in results/legodnn/image_classification/resnet18_cifar100_0-125/compressed/block-2-2.pt
2023-06-26 19:06:11,500 - block_extractor.py[29] - DEBUG: LegoDNNBlock(
  (layer2): ModuleDict(
    (0): ModuleDict(
      (conv1): Conv2d(64, 103, kernel_size=(3, 3), stride=(2, 2), padding=(1, 1), bias=False)
      (bn1): BatchNorm2d(103, eps=1e-05, momentum=0.1, affine=True, track_running_stats=True)
      (relu1): ReLU()
      (conv2): Conv2d(103, 128, kernel_size=(3, 3), stride=(1, 1), padding=(1, 1), bias=False)
    )
  )
)
2023-06-26 19:06:11,702 - block_extractor.py[28] - INFO: save pruned block block-2 (sparsity 0.4) in results/legodnn/image_classification/resnet18_cifar100_0-125/compressed/block-2-4.pt
2023-06-26 19:06:11,702 - block_extractor.py[29] - DEBUG: LegoDNNBlock(
  (layer2): ModuleDict(
    (0): ModuleDict(
      (conv1): Conv2d(64, 77, kernel_size=(3, 3), stride=(2, 2), padding=(1, 1), bias=False)
      (bn1): BatchNorm2d(77, eps=1e-05, momentum=0.1, affine=True, track_running_stats=True)
      (relu1): ReLU()
      (conv2): Conv2d(77, 128, kernel_size=(3, 3), stride=(1, 1), padding=(1, 1), bias=False)
    )
  )
)
2023-06-26 19:06:11,936 - block_extractor.py[28] - INFO: save pruned block block-2 (sparsity 0.6) in results/legodnn/image_classification/resnet18_cifar100_0-125/compressed/block-2-6.pt
2023-06-26 19:06:11,937 - block_extractor.py[29] - DEBUG: LegoDNNBlock(
  (layer2): ModuleDict(
    (0): ModuleDict(
      (conv1): Conv2d(64, 52, kernel_size=(3, 3), stride=(2, 2), padding=(1, 1), bias=False)
      (bn1): BatchNorm2d(52, eps=1e-05, momentum=0.1, affine=True, track_running_stats=True)
      (relu1): ReLU()
      (conv2): Conv2d(52, 128, kernel_size=(3, 3), stride=(1, 1), padding=(1, 1), bias=False)
    )
  )
)
2023-06-26 19:06:12,208 - block_extractor.py[28] - INFO: save pruned block block-2 (sparsity 0.8) in results/legodnn/image_classification/resnet18_cifar100_0-125/compressed/block-2-8.pt
2023-06-26 19:06:12,208 - block_extractor.py[29] - DEBUG: LegoDNNBlock(
  (layer2): ModuleDict(
    (0): ModuleDict(
      (conv1): Conv2d(64, 26, kernel_size=(3, 3), stride=(2, 2), padding=(1, 1), bias=False)
      (bn1): BatchNorm2d(26, eps=1e-05, momentum=0.1, affine=True, track_running_stats=True)
      (relu1): ReLU()
      (conv2): Conv2d(26, 128, kernel_size=(3, 3), stride=(1, 1), padding=(1, 1), bias=False)
    )
  )
)
2023-06-26 19:06:12,240 - block_extractor.py[28] - INFO: save pruned block block-3 (sparsity 0.0) in results/legodnn/image_classification/resnet18_cifar100_0-125/compressed/block-3-0.pt
2023-06-26 19:06:12,240 - block_extractor.py[29] - DEBUG: LegoDNNBlock(
  (layer2): ModuleDict(
    (0): ModuleDict(
      (relu2): ReLU()
    )
    (1): ModuleDict(
      (conv1): Conv2d(128, 128, kernel_size=(3, 3), stride=(1, 1), padding=(1, 1), bias=False)
      (bn1): BatchNorm2d(128, eps=1e-05, momentum=0.1, affine=True, track_running_stats=True)
      (relu1): ReLU()
      (conv2): Conv2d(128, 128, kernel_size=(3, 3), stride=(1, 1), padding=(1, 1), bias=False)
      (bn2): BatchNorm2d(128, eps=1e-05, momentum=0.1, affine=True, track_running_stats=True)
    )
  )
)
2023-06-26 19:06:12,491 - block_extractor.py[28] - INFO: save pruned block block-3 (sparsity 0.2) in results/legodnn/image_classification/resnet18_cifar100_0-125/compressed/block-3-2.pt
2023-06-26 19:06:12,491 - block_extractor.py[29] - DEBUG: LegoDNNBlock(
  (layer2): ModuleDict(
    (0): ModuleDict(
      (relu2): ReLU()
    )
    (1): ModuleDict(
      (conv1): Conv2d(128, 103, kernel_size=(3, 3), stride=(1, 1), padding=(1, 1), bias=False)
      (bn1): BatchNorm2d(103, eps=1e-05, momentum=0.1, affine=True, track_running_stats=True)
      (relu1): ReLU()
      (conv2): Conv2d(103, 128, kernel_size=(3, 3), stride=(1, 1), padding=(1, 1), bias=False)
      (bn2): BatchNorm2d(128, eps=1e-05, momentum=0.1, affine=True, track_running_stats=True)
    )
  )
)
2023-06-26 19:06:12,747 - block_extractor.py[28] - INFO: save pruned block block-3 (sparsity 0.4) in results/legodnn/image_classification/resnet18_cifar100_0-125/compressed/block-3-4.pt
2023-06-26 19:06:12,747 - block_extractor.py[29] - DEBUG: LegoDNNBlock(
  (layer2): ModuleDict(
    (0): ModuleDict(
      (relu2): ReLU()
    )
    (1): ModuleDict(
      (conv1): Conv2d(128, 77, kernel_size=(3, 3), stride=(1, 1), padding=(1, 1), bias=False)
      (bn1): BatchNorm2d(77, eps=1e-05, momentum=0.1, affine=True, track_running_stats=True)
      (relu1): ReLU()
      (conv2): Conv2d(77, 128, kernel_size=(3, 3), stride=(1, 1), padding=(1, 1), bias=False)
      (bn2): BatchNorm2d(128, eps=1e-05, momentum=0.1, affine=True, track_running_stats=True)
    )
  )
)
2023-06-26 19:06:13,002 - block_extractor.py[28] - INFO: save pruned block block-3 (sparsity 0.6) in results/legodnn/image_classification/resnet18_cifar100_0-125/compressed/block-3-6.pt
2023-06-26 19:06:13,002 - block_extractor.py[29] - DEBUG: LegoDNNBlock(
  (layer2): ModuleDict(
    (0): ModuleDict(
      (relu2): ReLU()
    )
    (1): ModuleDict(
      (conv1): Conv2d(128, 52, kernel_size=(3, 3), stride=(1, 1), padding=(1, 1), bias=False)
      (bn1): BatchNorm2d(52, eps=1e-05, momentum=0.1, affine=True, track_running_stats=True)
      (relu1): ReLU()
      (conv2): Conv2d(52, 128, kernel_size=(3, 3), stride=(1, 1), padding=(1, 1), bias=False)
      (bn2): BatchNorm2d(128, eps=1e-05, momentum=0.1, affine=True, track_running_stats=True)
    )
  )
)
2023-06-26 19:06:13,260 - block_extractor.py[28] - INFO: save pruned block block-3 (sparsity 0.8) in results/legodnn/image_classification/resnet18_cifar100_0-125/compressed/block-3-8.pt
2023-06-26 19:06:13,260 - block_extractor.py[29] - DEBUG: LegoDNNBlock(
  (layer2): ModuleDict(
    (0): ModuleDict(
      (relu2): ReLU()
    )
    (1): ModuleDict(
      (conv1): Conv2d(128, 26, kernel_size=(3, 3), stride=(1, 1), padding=(1, 1), bias=False)
      (bn1): BatchNorm2d(26, eps=1e-05, momentum=0.1, affine=True, track_running_stats=True)
      (relu1): ReLU()
      (conv2): Conv2d(26, 128, kernel_size=(3, 3), stride=(1, 1), padding=(1, 1), bias=False)
      (bn2): BatchNorm2d(128, eps=1e-05, momentum=0.1, affine=True, track_running_stats=True)
    )
  )
)
2023-06-26 19:06:13,297 - block_extractor.py[28] - INFO: save pruned block block-4 (sparsity 0.0) in results/legodnn/image_classification/resnet18_cifar100_0-125/compressed/block-4-0.pt
2023-06-26 19:06:13,297 - block_extractor.py[29] - DEBUG: LegoDNNBlock(
  (layer3): ModuleDict(
    (0): ModuleDict(
      (conv1): Conv2d(128, 256, kernel_size=(3, 3), stride=(2, 2), padding=(1, 1), bias=False)
      (bn1): BatchNorm2d(256, eps=1e-05, momentum=0.1, affine=True, track_running_stats=True)
      (relu1): ReLU()
      (conv2): Conv2d(256, 256, kernel_size=(3, 3), stride=(1, 1), padding=(1, 1), bias=False)
    )
  )
)
2023-06-26 19:06:13,523 - block_extractor.py[28] - INFO: save pruned block block-4 (sparsity 0.2) in results/legodnn/image_classification/resnet18_cifar100_0-125/compressed/block-4-2.pt
2023-06-26 19:06:13,523 - block_extractor.py[29] - DEBUG: LegoDNNBlock(
  (layer3): ModuleDict(
    (0): ModuleDict(
      (conv1): Conv2d(128, 205, kernel_size=(3, 3), stride=(2, 2), padding=(1, 1), bias=False)
      (bn1): BatchNorm2d(205, eps=1e-05, momentum=0.1, affine=True, track_running_stats=True)
      (relu1): ReLU()
      (conv2): Conv2d(205, 256, kernel_size=(3, 3), stride=(1, 1), padding=(1, 1), bias=False)
    )
  )
)
2023-06-26 19:06:13,740 - block_extractor.py[28] - INFO: save pruned block block-4 (sparsity 0.4) in results/legodnn/image_classification/resnet18_cifar100_0-125/compressed/block-4-4.pt
2023-06-26 19:06:13,740 - block_extractor.py[29] - DEBUG: LegoDNNBlock(
  (layer3): ModuleDict(
    (0): ModuleDict(
      (conv1): Conv2d(128, 154, kernel_size=(3, 3), stride=(2, 2), padding=(1, 1), bias=False)
      (bn1): BatchNorm2d(154, eps=1e-05, momentum=0.1, affine=True, track_running_stats=True)
      (relu1): ReLU()
      (conv2): Conv2d(154, 256, kernel_size=(3, 3), stride=(1, 1), padding=(1, 1), bias=False)
    )
  )
)
2023-06-26 19:06:13,958 - block_extractor.py[28] - INFO: save pruned block block-4 (sparsity 0.6) in results/legodnn/image_classification/resnet18_cifar100_0-125/compressed/block-4-6.pt
2023-06-26 19:06:13,958 - block_extractor.py[29] - DEBUG: LegoDNNBlock(
  (layer3): ModuleDict(
    (0): ModuleDict(
      (conv1): Conv2d(128, 103, kernel_size=(3, 3), stride=(2, 2), padding=(1, 1), bias=False)
      (bn1): BatchNorm2d(103, eps=1e-05, momentum=0.1, affine=True, track_running_stats=True)
      (relu1): ReLU()
      (conv2): Conv2d(103, 256, kernel_size=(3, 3), stride=(1, 1), padding=(1, 1), bias=False)
    )
  )
)
2023-06-26 19:06:14,176 - block_extractor.py[28] - INFO: save pruned block block-4 (sparsity 0.8) in results/legodnn/image_classification/resnet18_cifar100_0-125/compressed/block-4-8.pt
2023-06-26 19:06:14,176 - block_extractor.py[29] - DEBUG: LegoDNNBlock(
  (layer3): ModuleDict(
    (0): ModuleDict(
      (conv1): Conv2d(128, 52, kernel_size=(3, 3), stride=(2, 2), padding=(1, 1), bias=False)
      (bn1): BatchNorm2d(52, eps=1e-05, momentum=0.1, affine=True, track_running_stats=True)
      (relu1): ReLU()
      (conv2): Conv2d(52, 256, kernel_size=(3, 3), stride=(1, 1), padding=(1, 1), bias=False)
    )
  )
)
2023-06-26 19:06:14,225 - block_extractor.py[28] - INFO: save pruned block block-5 (sparsity 0.0) in results/legodnn/image_classification/resnet18_cifar100_0-125/compressed/block-5-0.pt
2023-06-26 19:06:14,225 - block_extractor.py[29] - DEBUG: LegoDNNBlock(
  (layer3): ModuleDict(
    (0): ModuleDict(
      (relu2): ReLU()
    )
    (1): ModuleDict(
      (conv1): Conv2d(256, 256, kernel_size=(3, 3), stride=(1, 1), padding=(1, 1), bias=False)
      (bn1): BatchNorm2d(256, eps=1e-05, momentum=0.1, affine=True, track_running_stats=True)
      (relu1): ReLU()
      (conv2): Conv2d(256, 256, kernel_size=(3, 3), stride=(1, 1), padding=(1, 1), bias=False)
      (bn2): BatchNorm2d(256, eps=1e-05, momentum=0.1, affine=True, track_running_stats=True)
    )
  )
)
2023-06-26 19:06:14,530 - block_extractor.py[28] - INFO: save pruned block block-5 (sparsity 0.2) in results/legodnn/image_classification/resnet18_cifar100_0-125/compressed/block-5-2.pt
2023-06-26 19:06:14,530 - block_extractor.py[29] - DEBUG: LegoDNNBlock(
  (layer3): ModuleDict(
    (0): ModuleDict(
      (relu2): ReLU()
    )
    (1): ModuleDict(
      (conv1): Conv2d(256, 205, kernel_size=(3, 3), stride=(1, 1), padding=(1, 1), bias=False)
      (bn1): BatchNorm2d(205, eps=1e-05, momentum=0.1, affine=True, track_running_stats=True)
      (relu1): ReLU()
      (conv2): Conv2d(205, 256, kernel_size=(3, 3), stride=(1, 1), padding=(1, 1), bias=False)
      (bn2): BatchNorm2d(256, eps=1e-05, momentum=0.1, affine=True, track_running_stats=True)
    )
  )
)
2023-06-26 19:06:14,809 - block_extractor.py[28] - INFO: save pruned block block-5 (sparsity 0.4) in results/legodnn/image_classification/resnet18_cifar100_0-125/compressed/block-5-4.pt
2023-06-26 19:06:14,809 - block_extractor.py[29] - DEBUG: LegoDNNBlock(
  (layer3): ModuleDict(
    (0): ModuleDict(
      (relu2): ReLU()
    )
    (1): ModuleDict(
      (conv1): Conv2d(256, 154, kernel_size=(3, 3), stride=(1, 1), padding=(1, 1), bias=False)
      (bn1): BatchNorm2d(154, eps=1e-05, momentum=0.1, affine=True, track_running_stats=True)
      (relu1): ReLU()
      (conv2): Conv2d(154, 256, kernel_size=(3, 3), stride=(1, 1), padding=(1, 1), bias=False)
      (bn2): BatchNorm2d(256, eps=1e-05, momentum=0.1, affine=True, track_running_stats=True)
    )
  )
)
2023-06-26 19:06:15,091 - block_extractor.py[28] - INFO: save pruned block block-5 (sparsity 0.6) in results/legodnn/image_classification/resnet18_cifar100_0-125/compressed/block-5-6.pt
2023-06-26 19:06:15,091 - block_extractor.py[29] - DEBUG: LegoDNNBlock(
  (layer3): ModuleDict(
    (0): ModuleDict(
      (relu2): ReLU()
    )
    (1): ModuleDict(
      (conv1): Conv2d(256, 103, kernel_size=(3, 3), stride=(1, 1), padding=(1, 1), bias=False)
      (bn1): BatchNorm2d(103, eps=1e-05, momentum=0.1, affine=True, track_running_stats=True)
      (relu1): ReLU()
      (conv2): Conv2d(103, 256, kernel_size=(3, 3), stride=(1, 1), padding=(1, 1), bias=False)
      (bn2): BatchNorm2d(256, eps=1e-05, momentum=0.1, affine=True, track_running_stats=True)
    )
  )
)
2023-06-26 19:06:15,375 - block_extractor.py[28] - INFO: save pruned block block-5 (sparsity 0.8) in results/legodnn/image_classification/resnet18_cifar100_0-125/compressed/block-5-8.pt
2023-06-26 19:06:15,375 - block_extractor.py[29] - DEBUG: LegoDNNBlock(
  (layer3): ModuleDict(
    (0): ModuleDict(
      (relu2): ReLU()
    )
    (1): ModuleDict(
      (conv1): Conv2d(256, 52, kernel_size=(3, 3), stride=(1, 1), padding=(1, 1), bias=False)
      (bn1): BatchNorm2d(52, eps=1e-05, momentum=0.1, affine=True, track_running_stats=True)
      (relu1): ReLU()
      (conv2): Conv2d(52, 256, kernel_size=(3, 3), stride=(1, 1), padding=(1, 1), bias=False)
      (bn2): BatchNorm2d(256, eps=1e-05, momentum=0.1, affine=True, track_running_stats=True)
    )
  )
)
2023-06-26 19:06:15,426 - block_extractor.py[28] - INFO: save pruned block block-6 (sparsity 0.0) in results/legodnn/image_classification/resnet18_cifar100_0-125/compressed/block-6-0.pt
2023-06-26 19:06:15,426 - block_extractor.py[29] - DEBUG: LegoDNNBlock(
  (layer4): ModuleDict(
    (0): ModuleDict(
      (conv1): Conv2d(256, 512, kernel_size=(3, 3), stride=(2, 2), padding=(1, 1), bias=False)
      (bn1): BatchNorm2d(512, eps=1e-05, momentum=0.1, affine=True, track_running_stats=True)
      (relu1): ReLU()
      (conv2): Conv2d(512, 512, kernel_size=(3, 3), stride=(1, 1), padding=(1, 1), bias=False)
    )
  )
)
2023-06-26 19:06:15,742 - block_extractor.py[28] - INFO: save pruned block block-6 (sparsity 0.2) in results/legodnn/image_classification/resnet18_cifar100_0-125/compressed/block-6-2.pt
2023-06-26 19:06:15,742 - block_extractor.py[29] - DEBUG: LegoDNNBlock(
  (layer4): ModuleDict(
    (0): ModuleDict(
      (conv1): Conv2d(256, 410, kernel_size=(3, 3), stride=(2, 2), padding=(1, 1), bias=False)
      (bn1): BatchNorm2d(410, eps=1e-05, momentum=0.1, affine=True, track_running_stats=True)
      (relu1): ReLU()
      (conv2): Conv2d(410, 512, kernel_size=(3, 3), stride=(1, 1), padding=(1, 1), bias=False)
    )
  )
)
2023-06-26 19:06:16,028 - block_extractor.py[28] - INFO: save pruned block block-6 (sparsity 0.4) in results/legodnn/image_classification/resnet18_cifar100_0-125/compressed/block-6-4.pt
2023-06-26 19:06:16,028 - block_extractor.py[29] - DEBUG: LegoDNNBlock(
  (layer4): ModuleDict(
    (0): ModuleDict(
      (conv1): Conv2d(256, 308, kernel_size=(3, 3), stride=(2, 2), padding=(1, 1), bias=False)
      (bn1): BatchNorm2d(308, eps=1e-05, momentum=0.1, affine=True, track_running_stats=True)
      (relu1): ReLU()
      (conv2): Conv2d(308, 512, kernel_size=(3, 3), stride=(1, 1), padding=(1, 1), bias=False)
    )
  )
)
2023-06-26 19:06:16,313 - block_extractor.py[28] - INFO: save pruned block block-6 (sparsity 0.6) in results/legodnn/image_classification/resnet18_cifar100_0-125/compressed/block-6-6.pt
2023-06-26 19:06:16,313 - block_extractor.py[29] - DEBUG: LegoDNNBlock(
  (layer4): ModuleDict(
    (0): ModuleDict(
      (conv1): Conv2d(256, 205, kernel_size=(3, 3), stride=(2, 2), padding=(1, 1), bias=False)
      (bn1): BatchNorm2d(205, eps=1e-05, momentum=0.1, affine=True, track_running_stats=True)
      (relu1): ReLU()
      (conv2): Conv2d(205, 512, kernel_size=(3, 3), stride=(1, 1), padding=(1, 1), bias=False)
    )
  )
)
2023-06-26 19:06:16,581 - block_extractor.py[28] - INFO: save pruned block block-6 (sparsity 0.8) in results/legodnn/image_classification/resnet18_cifar100_0-125/compressed/block-6-8.pt
2023-06-26 19:06:16,581 - block_extractor.py[29] - DEBUG: LegoDNNBlock(
  (layer4): ModuleDict(
    (0): ModuleDict(
      (conv1): Conv2d(256, 103, kernel_size=(3, 3), stride=(2, 2), padding=(1, 1), bias=False)
      (bn1): BatchNorm2d(103, eps=1e-05, momentum=0.1, affine=True, track_running_stats=True)
      (relu1): ReLU()
      (conv2): Conv2d(103, 512, kernel_size=(3, 3), stride=(1, 1), padding=(1, 1), bias=False)
    )
  )
)
2023-06-26 19:06:16,632 - block_extractor.py[28] - INFO: save pruned block block-7 (sparsity 0.0) in results/legodnn/image_classification/resnet18_cifar100_0-125/compressed/block-7-0.pt
2023-06-26 19:06:16,632 - block_extractor.py[29] - DEBUG: LegoDNNBlock(
  (layer4): ModuleDict(
    (0): ModuleDict(
      (relu2): ReLU()
    )
    (1): ModuleDict(
      (conv1): Conv2d(512, 512, kernel_size=(3, 3), stride=(1, 1), padding=(1, 1), bias=False)
      (bn1): BatchNorm2d(512, eps=1e-05, momentum=0.1, affine=True, track_running_stats=True)
      (relu1): ReLU()
      (conv2): Conv2d(512, 512, kernel_size=(3, 3), stride=(1, 1), padding=(1, 1), bias=False)
      (bn2): BatchNorm2d(512, eps=1e-05, momentum=0.1, affine=True, track_running_stats=True)
    )
  )
)
2023-06-26 19:06:16,994 - block_extractor.py[28] - INFO: save pruned block block-7 (sparsity 0.2) in results/legodnn/image_classification/resnet18_cifar100_0-125/compressed/block-7-2.pt
2023-06-26 19:06:16,995 - block_extractor.py[29] - DEBUG: LegoDNNBlock(
  (layer4): ModuleDict(
    (0): ModuleDict(
      (relu2): ReLU()
    )
    (1): ModuleDict(
      (conv1): Conv2d(512, 410, kernel_size=(3, 3), stride=(1, 1), padding=(1, 1), bias=False)
      (bn1): BatchNorm2d(410, eps=1e-05, momentum=0.1, affine=True, track_running_stats=True)
      (relu1): ReLU()
      (conv2): Conv2d(410, 512, kernel_size=(3, 3), stride=(1, 1), padding=(1, 1), bias=False)
      (bn2): BatchNorm2d(512, eps=1e-05, momentum=0.1, affine=True, track_running_stats=True)
    )
  )
)
2023-06-26 19:06:17,360 - block_extractor.py[28] - INFO: save pruned block block-7 (sparsity 0.4) in results/legodnn/image_classification/resnet18_cifar100_0-125/compressed/block-7-4.pt
2023-06-26 19:06:17,360 - block_extractor.py[29] - DEBUG: LegoDNNBlock(
  (layer4): ModuleDict(
    (0): ModuleDict(
      (relu2): ReLU()
    )
    (1): ModuleDict(
      (conv1): Conv2d(512, 308, kernel_size=(3, 3), stride=(1, 1), padding=(1, 1), bias=False)
      (bn1): BatchNorm2d(308, eps=1e-05, momentum=0.1, affine=True, track_running_stats=True)
      (relu1): ReLU()
      (conv2): Conv2d(308, 512, kernel_size=(3, 3), stride=(1, 1), padding=(1, 1), bias=False)
      (bn2): BatchNorm2d(512, eps=1e-05, momentum=0.1, affine=True, track_running_stats=True)
    )
  )
)
2023-06-26 19:06:17,701 - block_extractor.py[28] - INFO: save pruned block block-7 (sparsity 0.6) in results/legodnn/image_classification/resnet18_cifar100_0-125/compressed/block-7-6.pt
2023-06-26 19:06:17,701 - block_extractor.py[29] - DEBUG: LegoDNNBlock(
  (layer4): ModuleDict(
    (0): ModuleDict(
      (relu2): ReLU()
    )
    (1): ModuleDict(
      (conv1): Conv2d(512, 205, kernel_size=(3, 3), stride=(1, 1), padding=(1, 1), bias=False)
      (bn1): BatchNorm2d(205, eps=1e-05, momentum=0.1, affine=True, track_running_stats=True)
      (relu1): ReLU()
      (conv2): Conv2d(205, 512, kernel_size=(3, 3), stride=(1, 1), padding=(1, 1), bias=False)
      (bn2): BatchNorm2d(512, eps=1e-05, momentum=0.1, affine=True, track_running_stats=True)
    )
  )
)
2023-06-26 19:06:18,054 - block_extractor.py[28] - INFO: save pruned block block-7 (sparsity 0.8) in results/legodnn/image_classification/resnet18_cifar100_0-125/compressed/block-7-8.pt
2023-06-26 19:06:18,054 - block_extractor.py[29] - DEBUG: LegoDNNBlock(
  (layer4): ModuleDict(
    (0): ModuleDict(
      (relu2): ReLU()
    )
    (1): ModuleDict(
      (conv1): Conv2d(512, 103, kernel_size=(3, 3), stride=(1, 1), padding=(1, 1), bias=False)
      (bn1): BatchNorm2d(103, eps=1e-05, momentum=0.1, affine=True, track_running_stats=True)
      (relu1): ReLU()
      (conv2): Conv2d(103, 512, kernel_size=(3, 3), stride=(1, 1), padding=(1, 1), bias=False)
      (bn2): BatchNorm2d(512, eps=1e-05, momentum=0.1, affine=True, track_running_stats=True)
    )
  )
)
