…
    gen_series_legodnn_models(deadline=100, model_size_search_range=[model_size_min, model_size_max], target_model_num=100, optimal_runtime=optimal_runtime, descendant_models_save_path=descendant_models_dir_path, device=device)
    time_logger_obj.end('Optimal runtime search')
2023-07-09 20:03:03,975 - log.py[40] - DEBUG: entry file content: ---------------------------------
2023-07-09 20:03:10,252 - block_extractor.py[28] - INFO: save pruned block block-0 (sparsity 0.0) in results/legodnn/image_classification/vgg16_cifar10_0-125/compressed/block-0-0.pt
2023-07-09 20:03:10,252 - block_extractor.py[29] - DEBUG: LegoDNNBlock(
  (features): ModuleDict(
    (0): Conv2d(3, 64, kernel_size=(3, 3), stride=(1, 1), padding=(1, 1))
    (1): BatchNorm2d(64, eps=1e-05, momentum=0.1, affine=True, track_running_stats=True)
    (2): ReLU(inplace=True)
    (3): Conv2d(64, 64, kernel_size=(3, 3), stride=(1, 1), padding=(1, 1))
  )
)
2023-07-09 20:03:10,424 - block_extractor.py[28] - INFO: save pruned block block-0 (sparsity 0.2) in results/legodnn/image_classification/vgg16_cifar10_0-125/compressed/block-0-2.pt
2023-07-09 20:03:10,424 - block_extractor.py[29] - DEBUG: LegoDNNBlock(
  (features): ModuleDict(
    (0): Conv2d(3, 52, kernel_size=(3, 3), stride=(1, 1), padding=(1, 1))
    (1): BatchNorm2d(52, eps=1e-05, momentum=0.1, affine=True, track_running_stats=True)
    (2): ReLU(inplace=True)
    (3): Conv2d(52, 64, kernel_size=(3, 3), stride=(1, 1), padding=(1, 1))
  )
)
2023-07-09 20:03:10,588 - block_extractor.py[28] - INFO: save pruned block block-0 (sparsity 0.4) in results/legodnn/image_classification/vgg16_cifar10_0-125/compressed/block-0-4.pt
2023-07-09 20:03:10,588 - block_extractor.py[29] - DEBUG: LegoDNNBlock(
  (features): ModuleDict(
    (0): Conv2d(3, 39, kernel_size=(3, 3), stride=(1, 1), padding=(1, 1))
    (1): BatchNorm2d(39, eps=1e-05, momentum=0.1, affine=True, track_running_stats=True)
    (2): ReLU(inplace=True)
    (3): Conv2d(39, 64, kernel_size=(3, 3), stride=(1, 1), padding=(1, 1))
  )
)
2023-07-09 20:03:10,757 - block_extractor.py[28] - INFO: save pruned block block-0 (sparsity 0.6) in results/legodnn/image_classification/vgg16_cifar10_0-125/compressed/block-0-6.pt
2023-07-09 20:03:10,757 - block_extractor.py[29] - DEBUG: LegoDNNBlock(
  (features): ModuleDict(
    (0): Conv2d(3, 26, kernel_size=(3, 3), stride=(1, 1), padding=(1, 1))
    (1): BatchNorm2d(26, eps=1e-05, momentum=0.1, affine=True, track_running_stats=True)
    (2): ReLU(inplace=True)
    (3): Conv2d(26, 64, kernel_size=(3, 3), stride=(1, 1), padding=(1, 1))
  )
)
2023-07-09 20:03:10,936 - block_extractor.py[28] - INFO: save pruned block block-0 (sparsity 0.8) in results/legodnn/image_classification/vgg16_cifar10_0-125/compressed/block-0-8.pt
2023-07-09 20:03:10,936 - block_extractor.py[29] - DEBUG: LegoDNNBlock(
  (features): ModuleDict(
    (0): Conv2d(3, 13, kernel_size=(3, 3), stride=(1, 1), padding=(1, 1))
    (1): BatchNorm2d(13, eps=1e-05, momentum=0.1, affine=True, track_running_stats=True)
    (2): ReLU(inplace=True)
    (3): Conv2d(13, 64, kernel_size=(3, 3), stride=(1, 1), padding=(1, 1))
  )
)
2023-07-09 20:03:10,957 - block_extractor.py[28] - INFO: save pruned block block-1 (sparsity 0.0) in results/legodnn/image_classification/vgg16_cifar10_0-125/compressed/block-1-0.pt
2023-07-09 20:03:10,957 - block_extractor.py[29] - DEBUG: LegoDNNBlock(
  (features): ModuleDict(
    (4): BatchNorm2d(64, eps=1e-05, momentum=0.1, affine=True, track_running_stats=True)
    (5): ReLU(inplace=True)
    (6): MaxPool2d(kernel_size=2, stride=2, padding=0, dilation=1, ceil_mode=False)
    (7): Conv2d(64, 128, kernel_size=(3, 3), stride=(1, 1), padding=(1, 1))
    (8): BatchNorm2d(128, eps=1e-05, momentum=0.1, affine=True, track_running_stats=True)
    (9): ReLU(inplace=True)
    (10): Conv2d(128, 128, kernel_size=(3, 3), stride=(1, 1), padding=(1, 1))
  )
)
2023-07-09 20:03:11,208 - block_extractor.py[28] - INFO: save pruned block block-1 (sparsity 0.2) in results/legodnn/image_classification/vgg16_cifar10_0-125/compressed/block-1-2.pt
2023-07-09 20:03:11,208 - block_extractor.py[29] - DEBUG: LegoDNNBlock(
  (features): ModuleDict(
    (4): BatchNorm2d(64, eps=1e-05, momentum=0.1, affine=True, track_running_stats=True)
    (5): ReLU(inplace=True)
    (6): MaxPool2d(kernel_size=2, stride=2, padding=0, dilation=1, ceil_mode=False)
    (7): Conv2d(64, 103, kernel_size=(3, 3), stride=(1, 1), padding=(1, 1))
    (8): BatchNorm2d(103, eps=1e-05, momentum=0.1, affine=True, track_running_stats=True)
    (9): ReLU(inplace=True)
    (10): Conv2d(103, 128, kernel_size=(3, 3), stride=(1, 1), padding=(1, 1))
  )
)
2023-07-09 20:03:11,432 - block_extractor.py[28] - INFO: save pruned block block-1 (sparsity 0.4) in results/legodnn/image_classification/vgg16_cifar10_0-125/compressed/block-1-4.pt
2023-07-09 20:03:11,433 - block_extractor.py[29] - DEBUG: LegoDNNBlock(
  (features): ModuleDict(
    (4): BatchNorm2d(64, eps=1e-05, momentum=0.1, affine=True, track_running_stats=True)
    (5): ReLU(inplace=True)
    (6): MaxPool2d(kernel_size=2, stride=2, padding=0, dilation=1, ceil_mode=False)
    (7): Conv2d(64, 77, kernel_size=(3, 3), stride=(1, 1), padding=(1, 1))
    (8): BatchNorm2d(77, eps=1e-05, momentum=0.1, affine=True, track_running_stats=True)
    (9): ReLU(inplace=True)
    (10): Conv2d(77, 128, kernel_size=(3, 3), stride=(1, 1), padding=(1, 1))
  )
)
2023-07-09 20:03:11,653 - block_extractor.py[28] - INFO: save pruned block block-1 (sparsity 0.6) in results/legodnn/image_classification/vgg16_cifar10_0-125/compressed/block-1-6.pt
2023-07-09 20:03:11,653 - block_extractor.py[29] - DEBUG: LegoDNNBlock(
  (features): ModuleDict(
    (4): BatchNorm2d(64, eps=1e-05, momentum=0.1, affine=True, track_running_stats=True)
    (5): ReLU(inplace=True)
    (6): MaxPool2d(kernel_size=2, stride=2, padding=0, dilation=1, ceil_mode=False)
    (7): Conv2d(64, 52, kernel_size=(3, 3), stride=(1, 1), padding=(1, 1))
    (8): BatchNorm2d(52, eps=1e-05, momentum=0.1, affine=True, track_running_stats=True)
    (9): ReLU(inplace=True)
    (10): Conv2d(52, 128, kernel_size=(3, 3), stride=(1, 1), padding=(1, 1))
  )
)
2023-07-09 20:03:11,897 - block_extractor.py[28] - INFO: save pruned block block-1 (sparsity 0.8) in results/legodnn/image_classification/vgg16_cifar10_0-125/compressed/block-1-8.pt
2023-07-09 20:03:11,897 - block_extractor.py[29] - DEBUG: LegoDNNBlock(
  (features): ModuleDict(
    (4): BatchNorm2d(64, eps=1e-05, momentum=0.1, affine=True, track_running_stats=True)
    (5): ReLU(inplace=True)
    (6): MaxPool2d(kernel_size=2, stride=2, padding=0, dilation=1, ceil_mode=False)
    (7): Conv2d(64, 26, kernel_size=(3, 3), stride=(1, 1), padding=(1, 1))
    (8): BatchNorm2d(26, eps=1e-05, momentum=0.1, affine=True, track_running_stats=True)
    (9): ReLU(inplace=True)
    (10): Conv2d(26, 128, kernel_size=(3, 3), stride=(1, 1), padding=(1, 1))
  )
)
2023-07-09 20:03:11,922 - block_extractor.py[28] - INFO: save pruned block block-2 (sparsity 0.0) in results/legodnn/image_classification/vgg16_cifar10_0-125/compressed/block-2-0.pt
2023-07-09 20:03:11,922 - block_extractor.py[29] - DEBUG: LegoDNNBlock(
  (features): ModuleDict(
    (11): BatchNorm2d(128, eps=1e-05, momentum=0.1, affine=True, track_running_stats=True)
    (12): ReLU(inplace=True)
    (13): MaxPool2d(kernel_size=2, stride=2, padding=0, dilation=1, ceil_mode=False)
    (14): Conv2d(128, 256, kernel_size=(3, 3), stride=(1, 1), padding=(1, 1))
    (15): BatchNorm2d(256, eps=1e-05, momentum=0.1, affine=True, track_running_stats=True)
    (16): ReLU(inplace=True)
    (17): Conv2d(256, 256, kernel_size=(3, 3), stride=(1, 1), padding=(1, 1))
  )
)
2023-07-09 20:03:12,160 - block_extractor.py[28] - INFO: save pruned block block-2 (sparsity 0.2) in results/legodnn/image_classification/vgg16_cifar10_0-125/compressed/block-2-2.pt
2023-07-09 20:03:12,160 - block_extractor.py[29] - DEBUG: LegoDNNBlock(
  (features): ModuleDict(
    (11): BatchNorm2d(128, eps=1e-05, momentum=0.1, affine=True, track_running_stats=True)
    (12): ReLU(inplace=True)
    (13): MaxPool2d(kernel_size=2, stride=2, padding=0, dilation=1, ceil_mode=False)
    (14): Conv2d(128, 205, kernel_size=(3, 3), stride=(1, 1), padding=(1, 1))
    (15): BatchNorm2d(205, eps=1e-05, momentum=0.1, affine=True, track_running_stats=True)
    (16): ReLU(inplace=True)
    (17): Conv2d(205, 256, kernel_size=(3, 3), stride=(1, 1), padding=(1, 1))
  )
)
2023-07-09 20:03:12,399 - block_extractor.py[28] - INFO: save pruned block block-2 (sparsity 0.4) in results/legodnn/image_classification/vgg16_cifar10_0-125/compressed/block-2-4.pt
2023-07-09 20:03:12,399 - block_extractor.py[29] - DEBUG: LegoDNNBlock(
  (features): ModuleDict(
    (11): BatchNorm2d(128, eps=1e-05, momentum=0.1, affine=True, track_running_stats=True)
    (12): ReLU(inplace=True)
    (13): MaxPool2d(kernel_size=2, stride=2, padding=0, dilation=1, ceil_mode=False)
    (14): Conv2d(128, 154, kernel_size=(3, 3), stride=(1, 1), padding=(1, 1))
    (15): BatchNorm2d(154, eps=1e-05, momentum=0.1, affine=True, track_running_stats=True)
    (16): ReLU(inplace=True)
    (17): Conv2d(154, 256, kernel_size=(3, 3), stride=(1, 1), padding=(1, 1))
  )
)
2023-07-09 20:03:12,643 - block_extractor.py[28] - INFO: save pruned block block-2 (sparsity 0.6) in results/legodnn/image_classification/vgg16_cifar10_0-125/compressed/block-2-6.pt
2023-07-09 20:03:12,643 - block_extractor.py[29] - DEBUG: LegoDNNBlock(
  (features): ModuleDict(
    (11): BatchNorm2d(128, eps=1e-05, momentum=0.1, affine=True, track_running_stats=True)
    (12): ReLU(inplace=True)
    (13): MaxPool2d(kernel_size=2, stride=2, padding=0, dilation=1, ceil_mode=False)
    (14): Conv2d(128, 103, kernel_size=(3, 3), stride=(1, 1), padding=(1, 1))
    (15): BatchNorm2d(103, eps=1e-05, momentum=0.1, affine=True, track_running_stats=True)
    (16): ReLU(inplace=True)
    (17): Conv2d(103, 256, kernel_size=(3, 3), stride=(1, 1), padding=(1, 1))
  )
)
2023-07-09 20:03:12,902 - block_extractor.py[28] - INFO: save pruned block block-2 (sparsity 0.8) in results/legodnn/image_classification/vgg16_cifar10_0-125/compressed/block-2-8.pt
2023-07-09 20:03:12,902 - block_extractor.py[29] - DEBUG: LegoDNNBlock(
  (features): ModuleDict(
    (11): BatchNorm2d(128, eps=1e-05, momentum=0.1, affine=True, track_running_stats=True)
    (12): ReLU(inplace=True)
    (13): MaxPool2d(kernel_size=2, stride=2, padding=0, dilation=1, ceil_mode=False)
    (14): Conv2d(128, 52, kernel_size=(3, 3), stride=(1, 1), padding=(1, 1))
    (15): BatchNorm2d(52, eps=1e-05, momentum=0.1, affine=True, track_running_stats=True)
    (16): ReLU(inplace=True)
    (17): Conv2d(52, 256, kernel_size=(3, 3), stride=(1, 1), padding=(1, 1))
  )
)
2023-07-09 20:03:12,934 - block_extractor.py[28] - INFO: save pruned block block-3 (sparsity 0.0) in results/legodnn/image_classification/vgg16_cifar10_0-125/compressed/block-3-0.pt
2023-07-09 20:03:12,934 - block_extractor.py[29] - DEBUG: LegoDNNBlock(
  (features): ModuleDict(
    (18): BatchNorm2d(256, eps=1e-05, momentum=0.1, affine=True, track_running_stats=True)
    (19): ReLU(inplace=True)
    (20): Conv2d(256, 256, kernel_size=(3, 3), stride=(1, 1), padding=(1, 1))
    (21): BatchNorm2d(256, eps=1e-05, momentum=0.1, affine=True, track_running_stats=True)
    (22): ReLU(inplace=True)
    (23): MaxPool2d(kernel_size=2, stride=2, padding=0, dilation=1, ceil_mode=False)
    (24): Conv2d(256, 512, kernel_size=(3, 3), stride=(1, 1), padding=(1, 1))
  )
)
2023-07-09 20:03:13,204 - block_extractor.py[28] - INFO: save pruned block block-3 (sparsity 0.2) in results/legodnn/image_classification/vgg16_cifar10_0-125/compressed/block-3-2.pt
2023-07-09 20:03:13,205 - block_extractor.py[29] - DEBUG: LegoDNNBlock(
  (features): ModuleDict(
    (18): BatchNorm2d(256, eps=1e-05, momentum=0.1, affine=True, track_running_stats=True)
    (19): ReLU(inplace=True)
    (20): Conv2d(256, 205, kernel_size=(3, 3), stride=(1, 1), padding=(1, 1))
    (21): BatchNorm2d(205, eps=1e-05, momentum=0.1, affine=True, track_running_stats=True)
    (22): ReLU(inplace=True)
    (23): MaxPool2d(kernel_size=2, stride=2, padding=0, dilation=1, ceil_mode=False)
    (24): Conv2d(205, 512, kernel_size=(3, 3), stride=(1, 1), padding=(1, 1))
  )
)
2023-07-09 20:03:13,472 - block_extractor.py[28] - INFO: save pruned block block-3 (sparsity 0.4) in results/legodnn/image_classification/vgg16_cifar10_0-125/compressed/block-3-4.pt
2023-07-09 20:03:13,472 - block_extractor.py[29] - DEBUG: LegoDNNBlock(
  (features): ModuleDict(
    (18): BatchNorm2d(256, eps=1e-05, momentum=0.1, affine=True, track_running_stats=True)
    (19): ReLU(inplace=True)
    (20): Conv2d(256, 154, kernel_size=(3, 3), stride=(1, 1), padding=(1, 1))
    (21): BatchNorm2d(154, eps=1e-05, momentum=0.1, affine=True, track_running_stats=True)
    (22): ReLU(inplace=True)
    (23): MaxPool2d(kernel_size=2, stride=2, padding=0, dilation=1, ceil_mode=False)
    (24): Conv2d(154, 512, kernel_size=(3, 3), stride=(1, 1), padding=(1, 1))
  )
)
2023-07-09 20:03:13,760 - block_extractor.py[28] - INFO: save pruned block block-3 (sparsity 0.6) in results/legodnn/image_classification/vgg16_cifar10_0-125/compressed/block-3-6.pt
2023-07-09 20:03:13,760 - block_extractor.py[29] - DEBUG: LegoDNNBlock(
  (features): ModuleDict(
    (18): BatchNorm2d(256, eps=1e-05, momentum=0.1, affine=True, track_running_stats=True)
    (19): ReLU(inplace=True)
    (20): Conv2d(256, 103, kernel_size=(3, 3), stride=(1, 1), padding=(1, 1))
    (21): BatchNorm2d(103, eps=1e-05, momentum=0.1, affine=True, track_running_stats=True)
    (22): ReLU(inplace=True)
    (23): MaxPool2d(kernel_size=2, stride=2, padding=0, dilation=1, ceil_mode=False)
    (24): Conv2d(103, 512, kernel_size=(3, 3), stride=(1, 1), padding=(1, 1))
  )
)
2023-07-09 20:03:14,018 - block_extractor.py[28] - INFO: save pruned block block-3 (sparsity 0.8) in results/legodnn/image_classification/vgg16_cifar10_0-125/compressed/block-3-8.pt
2023-07-09 20:03:14,018 - block_extractor.py[29] - DEBUG: LegoDNNBlock(
  (features): ModuleDict(
    (18): BatchNorm2d(256, eps=1e-05, momentum=0.1, affine=True, track_running_stats=True)
    (19): ReLU(inplace=True)
    (20): Conv2d(256, 52, kernel_size=(3, 3), stride=(1, 1), padding=(1, 1))
    (21): BatchNorm2d(52, eps=1e-05, momentum=0.1, affine=True, track_running_stats=True)
    (22): ReLU(inplace=True)
    (23): MaxPool2d(kernel_size=2, stride=2, padding=0, dilation=1, ceil_mode=False)
    (24): Conv2d(52, 512, kernel_size=(3, 3), stride=(1, 1), padding=(1, 1))
  )
)
2023-07-09 20:03:14,067 - block_extractor.py[28] - INFO: save pruned block block-4 (sparsity 0.0) in results/legodnn/image_classification/vgg16_cifar10_0-125/compressed/block-4-0.pt
2023-07-09 20:03:14,067 - block_extractor.py[29] - DEBUG: LegoDNNBlock(
  (features): ModuleDict(
    (25): BatchNorm2d(512, eps=1e-05, momentum=0.1, affine=True, track_running_stats=True)
    (26): ReLU(inplace=True)
    (27): Conv2d(512, 512, kernel_size=(3, 3), stride=(1, 1), padding=(1, 1))
    (28): BatchNorm2d(512, eps=1e-05, momentum=0.1, affine=True, track_running_stats=True)
    (29): ReLU(inplace=True)
    (30): Conv2d(512, 512, kernel_size=(3, 3), stride=(1, 1), padding=(1, 1))
  )
)
2023-07-09 20:03:14,401 - block_extractor.py[28] - INFO: save pruned block block-4 (sparsity 0.2) in results/legodnn/image_classification/vgg16_cifar10_0-125/compressed/block-4-2.pt
2023-07-09 20:03:14,401 - block_extractor.py[29] - DEBUG: LegoDNNBlock(
  (features): ModuleDict(
    (25): BatchNorm2d(512, eps=1e-05, momentum=0.1, affine=True, track_running_stats=True)
    (26): ReLU(inplace=True)
    (27): Conv2d(512, 410, kernel_size=(3, 3), stride=(1, 1), padding=(1, 1))
    (28): BatchNorm2d(410, eps=1e-05, momentum=0.1, affine=True, track_running_stats=True)
    (29): ReLU(inplace=True)
    (30): Conv2d(410, 512, kernel_size=(3, 3), stride=(1, 1), padding=(1, 1))
  )
)
2023-07-09 20:03:14,727 - block_extractor.py[28] - INFO: save pruned block block-4 (sparsity 0.4) in results/legodnn/image_classification/vgg16_cifar10_0-125/compressed/block-4-4.pt
2023-07-09 20:03:14,727 - block_extractor.py[29] - DEBUG: LegoDNNBlock(
  (features): ModuleDict(
    (25): BatchNorm2d(512, eps=1e-05, momentum=0.1, affine=True, track_running_stats=True)
    (26): ReLU(inplace=True)
    (27): Conv2d(512, 308, kernel_size=(3, 3), stride=(1, 1), padding=(1, 1))
    (28): BatchNorm2d(308, eps=1e-05, momentum=0.1, affine=True, track_running_stats=True)
    (29): ReLU(inplace=True)
    (30): Conv2d(308, 512, kernel_size=(3, 3), stride=(1, 1), padding=(1, 1))
  )
)
2023-07-09 20:03:15,026 - block_extractor.py[28] - INFO: save pruned block block-4 (sparsity 0.6) in results/legodnn/image_classification/vgg16_cifar10_0-125/compressed/block-4-6.pt
2023-07-09 20:03:15,026 - block_extractor.py[29] - DEBUG: LegoDNNBlock(
  (features): ModuleDict(
    (25): BatchNorm2d(512, eps=1e-05, momentum=0.1, affine=True, track_running_stats=True)
    (26): ReLU(inplace=True)
    (27): Conv2d(512, 205, kernel_size=(3, 3), stride=(1, 1), padding=(1, 1))
    (28): BatchNorm2d(205, eps=1e-05, momentum=0.1, affine=True, track_running_stats=True)
    (29): ReLU(inplace=True)
    (30): Conv2d(205, 512, kernel_size=(3, 3), stride=(1, 1), padding=(1, 1))
  )
)
2023-07-09 20:03:15,350 - block_extractor.py[28] - INFO: save pruned block block-4 (sparsity 0.8) in results/legodnn/image_classification/vgg16_cifar10_0-125/compressed/block-4-8.pt
2023-07-09 20:03:15,350 - block_extractor.py[29] - DEBUG: LegoDNNBlock(
  (features): ModuleDict(
    (25): BatchNorm2d(512, eps=1e-05, momentum=0.1, affine=True, track_running_stats=True)
    (26): ReLU(inplace=True)
    (27): Conv2d(512, 103, kernel_size=(3, 3), stride=(1, 1), padding=(1, 1))
    (28): BatchNorm2d(103, eps=1e-05, momentum=0.1, affine=True, track_running_stats=True)
    (29): ReLU(inplace=True)
    (30): Conv2d(103, 512, kernel_size=(3, 3), stride=(1, 1), padding=(1, 1))
  )
)
2023-07-09 20:03:15,402 - block_extractor.py[28] - INFO: save pruned block block-5 (sparsity 0.0) in results/legodnn/image_classification/vgg16_cifar10_0-125/compressed/block-5-0.pt
2023-07-09 20:03:15,402 - block_extractor.py[29] - DEBUG: LegoDNNBlock(
  (features): ModuleDict(
    (31): BatchNorm2d(512, eps=1e-05, momentum=0.1, affine=True, track_running_stats=True)
    (32): ReLU(inplace=True)
    (33): MaxPool2d(kernel_size=2, stride=2, padding=0, dilation=1, ceil_mode=False)
    (34): Conv2d(512, 512, kernel_size=(3, 3), stride=(1, 1), padding=(1, 1))
    (35): BatchNorm2d(512, eps=1e-05, momentum=0.1, affine=True, track_running_stats=True)
    (36): ReLU(inplace=True)
    (37): Conv2d(512, 512, kernel_size=(3, 3), stride=(1, 1), padding=(1, 1))
  )
)
2023-07-09 20:03:15,736 - block_extractor.py[28] - INFO: save pruned block block-5 (sparsity 0.2) in results/legodnn/image_classification/vgg16_cifar10_0-125/compressed/block-5-2.pt
2023-07-09 20:03:15,737 - block_extractor.py[29] - DEBUG: LegoDNNBlock(
  (features): ModuleDict(
    (31): BatchNorm2d(512, eps=1e-05, momentum=0.1, affine=True, track_running_stats=True)
    (32): ReLU(inplace=True)
    (33): MaxPool2d(kernel_size=2, stride=2, padding=0, dilation=1, ceil_mode=False)
    (34): Conv2d(512, 410, kernel_size=(3, 3), stride=(1, 1), padding=(1, 1))
    (35): BatchNorm2d(410, eps=1e-05, momentum=0.1, affine=True, track_running_stats=True)
    (36): ReLU(inplace=True)
    (37): Conv2d(410, 512, kernel_size=(3, 3), stride=(1, 1), padding=(1, 1))
  )
)
2023-07-09 20:03:16,101 - block_extractor.py[28] - INFO: save pruned block block-5 (sparsity 0.4) in results/legodnn/image_classification/vgg16_cifar10_0-125/compressed/block-5-4.pt
2023-07-09 20:03:16,101 - block_extractor.py[29] - DEBUG: LegoDNNBlock(
  (features): ModuleDict(
    (31): BatchNorm2d(512, eps=1e-05, momentum=0.1, affine=True, track_running_stats=True)
    (32): ReLU(inplace=True)
    (33): MaxPool2d(kernel_size=2, stride=2, padding=0, dilation=1, ceil_mode=False)
    (34): Conv2d(512, 308, kernel_size=(3, 3), stride=(1, 1), padding=(1, 1))
    (35): BatchNorm2d(308, eps=1e-05, momentum=0.1, affine=True, track_running_stats=True)
    (36): ReLU(inplace=True)
    (37): Conv2d(308, 512, kernel_size=(3, 3), stride=(1, 1), padding=(1, 1))
  )
)
2023-07-09 20:03:16,424 - block_extractor.py[28] - INFO: save pruned block block-5 (sparsity 0.6) in results/legodnn/image_classification/vgg16_cifar10_0-125/compressed/block-5-6.pt
2023-07-09 20:03:16,424 - block_extractor.py[29] - DEBUG: LegoDNNBlock(
  (features): ModuleDict(
    (31): BatchNorm2d(512, eps=1e-05, momentum=0.1, affine=True, track_running_stats=True)
    (32): ReLU(inplace=True)
    (33): MaxPool2d(kernel_size=2, stride=2, padding=0, dilation=1, ceil_mode=False)
    (34): Conv2d(512, 205, kernel_size=(3, 3), stride=(1, 1), padding=(1, 1))
    (35): BatchNorm2d(205, eps=1e-05, momentum=0.1, affine=True, track_running_stats=True)
    (36): ReLU(inplace=True)
    (37): Conv2d(205, 512, kernel_size=(3, 3), stride=(1, 1), padding=(1, 1))
  )
)
2023-07-09 20:03:16,735 - block_extractor.py[28] - INFO: save pruned block block-5 (sparsity 0.8) in results/legodnn/image_classification/vgg16_cifar10_0-125/compressed/block-5-8.pt
2023-07-09 20:03:16,735 - block_extractor.py[29] - DEBUG: LegoDNNBlock(
  (features): ModuleDict(
    (31): BatchNorm2d(512, eps=1e-05, momentum=0.1, affine=True, track_running_stats=True)
    (32): ReLU(inplace=True)
    (33): MaxPool2d(kernel_size=2, stride=2, padding=0, dilation=1, ceil_mode=False)
    (34): Conv2d(512, 103, kernel_size=(3, 3), stride=(1, 1), padding=(1, 1))
    (35): BatchNorm2d(103, eps=1e-05, momentum=0.1, affine=True, track_running_stats=True)
    (36): ReLU(inplace=True)
    (37): Conv2d(103, 512, kernel_size=(3, 3), stride=(1, 1), padding=(1, 1))
  )
)
2023-07-09 20:03:18,240 - block_trainer.py[183] - INFO: start block training...
2023-07-09 20:07:00,604 - block_trainer.py[357] - INFO: epoch 0 (222.363460s, 30 blocks still need training), blocks loss: 
+---------+------------+------------+------------+------------+------------+
|         |    0.0     |    0.2     |    0.4     |    0.6     |    0.8     |
…
