…
    model_size_max = get_model_size(teacher_model)/1024**2 + 1
    gen_series_legodnn_models(deadline=100, model_size_search_range=[model_size_min, model_size_max], target_model_num=100, optimal_runtime=optimal_runtime, descendant_models_save_path=descendant_models_dir_path, device=device)
2023-06-27 20:20:20,137 - log.py[40] - DEBUG: entry file content: ---------------------------------
2023-06-27 20:20:26,192 - block_extractor.py[28] - INFO: save pruned block block-0 (sparsity 0.0) in results/legodnn/image_classification/resnet18_cifar100_0-125/compressed/block-0-0.pt
2023-06-27 20:20:26,192 - block_extractor.py[29] - DEBUG: LegoDNNBlock(
  (bn1): BatchNorm2d(64, eps=1e-05, momentum=0.1, affine=True, track_running_stats=True)
  (relu1): ReLU()
  (layer1): ModuleDict(
    (0): ModuleDict(
      (conv1): Conv2d(64, 64, kernel_size=(3, 3), stride=(1, 1), padding=(1, 1), bias=False)
      (bn1): BatchNorm2d(64, eps=1e-05, momentum=0.1, affine=True, track_running_stats=True)
      (relu1): ReLU()
      (conv2): Conv2d(64, 64, kernel_size=(3, 3), stride=(1, 1), padding=(1, 1), bias=False)
      (bn2): BatchNorm2d(64, eps=1e-05, momentum=0.1, affine=True, track_running_stats=True)
    )
  )
)
2023-06-27 20:20:26,464 - block_extractor.py[28] - INFO: save pruned block block-0 (sparsity 0.2) in results/legodnn/image_classification/resnet18_cifar100_0-125/compressed/block-0-2.pt
2023-06-27 20:20:26,464 - block_extractor.py[29] - DEBUG: LegoDNNBlock(
  (bn1): BatchNorm2d(64, eps=1e-05, momentum=0.1, affine=True, track_running_stats=True)
  (relu1): ReLU()
  (layer1): ModuleDict(
    (0): ModuleDict(
      (conv1): Conv2d(64, 52, kernel_size=(3, 3), stride=(1, 1), padding=(1, 1), bias=False)
      (bn1): BatchNorm2d(52, eps=1e-05, momentum=0.1, affine=True, track_running_stats=True)
      (relu1): ReLU()
      (conv2): Conv2d(52, 64, kernel_size=(3, 3), stride=(1, 1), padding=(1, 1), bias=False)
      (bn2): BatchNorm2d(64, eps=1e-05, momentum=0.1, affine=True, track_running_stats=True)
    )
  )
)
2023-06-27 20:20:26,732 - block_extractor.py[28] - INFO: save pruned block block-0 (sparsity 0.4) in results/legodnn/image_classification/resnet18_cifar100_0-125/compressed/block-0-4.pt
2023-06-27 20:20:26,732 - block_extractor.py[29] - DEBUG: LegoDNNBlock(
  (bn1): BatchNorm2d(64, eps=1e-05, momentum=0.1, affine=True, track_running_stats=True)
  (relu1): ReLU()
  (layer1): ModuleDict(
    (0): ModuleDict(
      (conv1): Conv2d(64, 39, kernel_size=(3, 3), stride=(1, 1), padding=(1, 1), bias=False)
      (bn1): BatchNorm2d(39, eps=1e-05, momentum=0.1, affine=True, track_running_stats=True)
      (relu1): ReLU()
      (conv2): Conv2d(39, 64, kernel_size=(3, 3), stride=(1, 1), padding=(1, 1), bias=False)
      (bn2): BatchNorm2d(64, eps=1e-05, momentum=0.1, affine=True, track_running_stats=True)
    )
  )
)
2023-06-27 20:20:27,000 - block_extractor.py[28] - INFO: save pruned block block-0 (sparsity 0.6) in results/legodnn/image_classification/resnet18_cifar100_0-125/compressed/block-0-6.pt
2023-06-27 20:20:27,000 - block_extractor.py[29] - DEBUG: LegoDNNBlock(
  (bn1): BatchNorm2d(64, eps=1e-05, momentum=0.1, affine=True, track_running_stats=True)
  (relu1): ReLU()
  (layer1): ModuleDict(
    (0): ModuleDict(
      (conv1): Conv2d(64, 26, kernel_size=(3, 3), stride=(1, 1), padding=(1, 1), bias=False)
      (bn1): BatchNorm2d(26, eps=1e-05, momentum=0.1, affine=True, track_running_stats=True)
      (relu1): ReLU()
      (conv2): Conv2d(26, 64, kernel_size=(3, 3), stride=(1, 1), padding=(1, 1), bias=False)
      (bn2): BatchNorm2d(64, eps=1e-05, momentum=0.1, affine=True, track_running_stats=True)
    )
  )
)
2023-06-27 20:20:27,266 - block_extractor.py[28] - INFO: save pruned block block-0 (sparsity 0.8) in results/legodnn/image_classification/resnet18_cifar100_0-125/compressed/block-0-8.pt
2023-06-27 20:20:27,267 - block_extractor.py[29] - DEBUG: LegoDNNBlock(
  (bn1): BatchNorm2d(64, eps=1e-05, momentum=0.1, affine=True, track_running_stats=True)
  (relu1): ReLU()
  (layer1): ModuleDict(
    (0): ModuleDict(
      (conv1): Conv2d(64, 13, kernel_size=(3, 3), stride=(1, 1), padding=(1, 1), bias=False)
      (bn1): BatchNorm2d(13, eps=1e-05, momentum=0.1, affine=True, track_running_stats=True)
      (relu1): ReLU()
      (conv2): Conv2d(13, 64, kernel_size=(3, 3), stride=(1, 1), padding=(1, 1), bias=False)
      (bn2): BatchNorm2d(64, eps=1e-05, momentum=0.1, affine=True, track_running_stats=True)
    )
  )
)
2023-06-27 20:20:27,294 - block_extractor.py[28] - INFO: save pruned block block-1 (sparsity 0.0) in results/legodnn/image_classification/resnet18_cifar100_0-125/compressed/block-1-0.pt
2023-06-27 20:20:27,294 - block_extractor.py[29] - DEBUG: LegoDNNBlock(
  (layer1): ModuleDict(
    (0): ModuleDict(
      (relu2): ReLU()
    )
    (1): ModuleDict(
      (conv1): Conv2d(64, 64, kernel_size=(3, 3), stride=(1, 1), padding=(1, 1), bias=False)
      (bn1): BatchNorm2d(64, eps=1e-05, momentum=0.1, affine=True, track_running_stats=True)
      (relu1): ReLU()
      (conv2): Conv2d(64, 64, kernel_size=(3, 3), stride=(1, 1), padding=(1, 1), bias=False)
      (bn2): BatchNorm2d(64, eps=1e-05, momentum=0.1, affine=True, track_running_stats=True)
    )
  )
)
2023-06-27 20:20:27,558 - block_extractor.py[28] - INFO: save pruned block block-1 (sparsity 0.2) in results/legodnn/image_classification/resnet18_cifar100_0-125/compressed/block-1-2.pt
2023-06-27 20:20:27,558 - block_extractor.py[29] - DEBUG: LegoDNNBlock(
  (layer1): ModuleDict(
    (0): ModuleDict(
      (relu2): ReLU()
    )
    (1): ModuleDict(
      (conv1): Conv2d(64, 52, kernel_size=(3, 3), stride=(1, 1), padding=(1, 1), bias=False)
      (bn1): BatchNorm2d(52, eps=1e-05, momentum=0.1, affine=True, track_running_stats=True)
      (relu1): ReLU()
      (conv2): Conv2d(52, 64, kernel_size=(3, 3), stride=(1, 1), padding=(1, 1), bias=False)
      (bn2): BatchNorm2d(64, eps=1e-05, momentum=0.1, affine=True, track_running_stats=True)
    )
  )
)
2023-06-27 20:20:27,841 - block_extractor.py[28] - INFO: save pruned block block-1 (sparsity 0.4) in results/legodnn/image_classification/resnet18_cifar100_0-125/compressed/block-1-4.pt
2023-06-27 20:20:27,841 - block_extractor.py[29] - DEBUG: LegoDNNBlock(
  (layer1): ModuleDict(
    (0): ModuleDict(
      (relu2): ReLU()
    )
    (1): ModuleDict(
      (conv1): Conv2d(64, 39, kernel_size=(3, 3), stride=(1, 1), padding=(1, 1), bias=False)
      (bn1): BatchNorm2d(39, eps=1e-05, momentum=0.1, affine=True, track_running_stats=True)
      (relu1): ReLU()
      (conv2): Conv2d(39, 64, kernel_size=(3, 3), stride=(1, 1), padding=(1, 1), bias=False)
      (bn2): BatchNorm2d(64, eps=1e-05, momentum=0.1, affine=True, track_running_stats=True)
    )
  )
)
2023-06-27 20:20:28,116 - block_extractor.py[28] - INFO: save pruned block block-1 (sparsity 0.6) in results/legodnn/image_classification/resnet18_cifar100_0-125/compressed/block-1-6.pt
2023-06-27 20:20:28,117 - block_extractor.py[29] - DEBUG: LegoDNNBlock(
  (layer1): ModuleDict(
    (0): ModuleDict(
      (relu2): ReLU()
    )
    (1): ModuleDict(
      (conv1): Conv2d(64, 26, kernel_size=(3, 3), stride=(1, 1), padding=(1, 1), bias=False)
      (bn1): BatchNorm2d(26, eps=1e-05, momentum=0.1, affine=True, track_running_stats=True)
      (relu1): ReLU()
      (conv2): Conv2d(26, 64, kernel_size=(3, 3), stride=(1, 1), padding=(1, 1), bias=False)
      (bn2): BatchNorm2d(64, eps=1e-05, momentum=0.1, affine=True, track_running_stats=True)
    )
  )
)
2023-06-27 20:20:28,377 - block_extractor.py[28] - INFO: save pruned block block-1 (sparsity 0.8) in results/legodnn/image_classification/resnet18_cifar100_0-125/compressed/block-1-8.pt
2023-06-27 20:20:28,377 - block_extractor.py[29] - DEBUG: LegoDNNBlock(
  (layer1): ModuleDict(
    (0): ModuleDict(
      (relu2): ReLU()
    )
    (1): ModuleDict(
      (conv1): Conv2d(64, 13, kernel_size=(3, 3), stride=(1, 1), padding=(1, 1), bias=False)
      (bn1): BatchNorm2d(13, eps=1e-05, momentum=0.1, affine=True, track_running_stats=True)
      (relu1): ReLU()
      (conv2): Conv2d(13, 64, kernel_size=(3, 3), stride=(1, 1), padding=(1, 1), bias=False)
      (bn2): BatchNorm2d(64, eps=1e-05, momentum=0.1, affine=True, track_running_stats=True)
    )
  )
)
2023-06-27 20:20:28,407 - block_extractor.py[28] - INFO: save pruned block block-2 (sparsity 0.0) in results/legodnn/image_classification/resnet18_cifar100_0-125/compressed/block-2-0.pt
2023-06-27 20:20:28,407 - block_extractor.py[29] - DEBUG: LegoDNNBlock(
  (layer2): ModuleDict(
    (0): ModuleDict(
      (conv1): Conv2d(64, 128, kernel_size=(3, 3), stride=(2, 2), padding=(1, 1), bias=False)
      (bn1): BatchNorm2d(128, eps=1e-05, momentum=0.1, affine=True, track_running_stats=True)
      (relu1): ReLU()
      (conv2): Conv2d(128, 128, kernel_size=(3, 3), stride=(1, 1), padding=(1, 1), bias=False)
    )
  )
)
2023-06-27 20:20:28,631 - block_extractor.py[28] - INFO: save pruned block block-2 (sparsity 0.2) in results/legodnn/image_classification/resnet18_cifar100_0-125/compressed/block-2-2.pt
2023-06-27 20:20:28,631 - block_extractor.py[29] - DEBUG: LegoDNNBlock(
  (layer2): ModuleDict(
    (0): ModuleDict(
      (conv1): Conv2d(64, 103, kernel_size=(3, 3), stride=(2, 2), padding=(1, 1), bias=False)
      (bn1): BatchNorm2d(103, eps=1e-05, momentum=0.1, affine=True, track_running_stats=True)
      (relu1): ReLU()
      (conv2): Conv2d(103, 128, kernel_size=(3, 3), stride=(1, 1), padding=(1, 1), bias=False)
    )
  )
)
2023-06-27 20:20:28,842 - block_extractor.py[28] - INFO: save pruned block block-2 (sparsity 0.4) in results/legodnn/image_classification/resnet18_cifar100_0-125/compressed/block-2-4.pt
2023-06-27 20:20:28,842 - block_extractor.py[29] - DEBUG: LegoDNNBlock(
  (layer2): ModuleDict(
    (0): ModuleDict(
      (conv1): Conv2d(64, 77, kernel_size=(3, 3), stride=(2, 2), padding=(1, 1), bias=False)
      (bn1): BatchNorm2d(77, eps=1e-05, momentum=0.1, affine=True, track_running_stats=True)
      (relu1): ReLU()
      (conv2): Conv2d(77, 128, kernel_size=(3, 3), stride=(1, 1), padding=(1, 1), bias=False)
    )
  )
)
2023-06-27 20:20:29,061 - block_extractor.py[28] - INFO: save pruned block block-2 (sparsity 0.6) in results/legodnn/image_classification/resnet18_cifar100_0-125/compressed/block-2-6.pt
2023-06-27 20:20:29,061 - block_extractor.py[29] - DEBUG: LegoDNNBlock(
  (layer2): ModuleDict(
    (0): ModuleDict(
      (conv1): Conv2d(64, 52, kernel_size=(3, 3), stride=(2, 2), padding=(1, 1), bias=False)
      (bn1): BatchNorm2d(52, eps=1e-05, momentum=0.1, affine=True, track_running_stats=True)
      (relu1): ReLU()
      (conv2): Conv2d(52, 128, kernel_size=(3, 3), stride=(1, 1), padding=(1, 1), bias=False)
    )
  )
)
2023-06-27 20:20:29,333 - block_extractor.py[28] - INFO: save pruned block block-2 (sparsity 0.8) in results/legodnn/image_classification/resnet18_cifar100_0-125/compressed/block-2-8.pt
2023-06-27 20:20:29,333 - block_extractor.py[29] - DEBUG: LegoDNNBlock(
  (layer2): ModuleDict(
    (0): ModuleDict(
      (conv1): Conv2d(64, 26, kernel_size=(3, 3), stride=(2, 2), padding=(1, 1), bias=False)
      (bn1): BatchNorm2d(26, eps=1e-05, momentum=0.1, affine=True, track_running_stats=True)
      (relu1): ReLU()
      (conv2): Conv2d(26, 128, kernel_size=(3, 3), stride=(1, 1), padding=(1, 1), bias=False)
    )
  )
)
2023-06-27 20:20:29,362 - block_extractor.py[28] - INFO: save pruned block block-3 (sparsity 0.0) in results/legodnn/image_classification/resnet18_cifar100_0-125/compressed/block-3-0.pt
2023-06-27 20:20:29,362 - block_extractor.py[29] - DEBUG: LegoDNNBlock(
  (layer2): ModuleDict(
    (0): ModuleDict(
      (relu2): ReLU()
    )
    (1): ModuleDict(
      (conv1): Conv2d(128, 128, kernel_size=(3, 3), stride=(1, 1), padding=(1, 1), bias=False)
      (bn1): BatchNorm2d(128, eps=1e-05, momentum=0.1, affine=True, track_running_stats=True)
      (relu1): ReLU()
      (conv2): Conv2d(128, 128, kernel_size=(3, 3), stride=(1, 1), padding=(1, 1), bias=False)
      (bn2): BatchNorm2d(128, eps=1e-05, momentum=0.1, affine=True, track_running_stats=True)
    )
  )
)
2023-06-27 20:20:29,627 - block_extractor.py[28] - INFO: save pruned block block-3 (sparsity 0.2) in results/legodnn/image_classification/resnet18_cifar100_0-125/compressed/block-3-2.pt
2023-06-27 20:20:29,627 - block_extractor.py[29] - DEBUG: LegoDNNBlock(
  (layer2): ModuleDict(
    (0): ModuleDict(
      (relu2): ReLU()
    )
    (1): ModuleDict(
      (conv1): Conv2d(128, 103, kernel_size=(3, 3), stride=(1, 1), padding=(1, 1), bias=False)
      (bn1): BatchNorm2d(103, eps=1e-05, momentum=0.1, affine=True, track_running_stats=True)
      (relu1): ReLU()
      (conv2): Conv2d(103, 128, kernel_size=(3, 3), stride=(1, 1), padding=(1, 1), bias=False)
      (bn2): BatchNorm2d(128, eps=1e-05, momentum=0.1, affine=True, track_running_stats=True)
    )
  )
)
2023-06-27 20:20:29,892 - block_extractor.py[28] - INFO: save pruned block block-3 (sparsity 0.4) in results/legodnn/image_classification/resnet18_cifar100_0-125/compressed/block-3-4.pt
2023-06-27 20:20:29,893 - block_extractor.py[29] - DEBUG: LegoDNNBlock(
  (layer2): ModuleDict(
    (0): ModuleDict(
      (relu2): ReLU()
    )
    (1): ModuleDict(
      (conv1): Conv2d(128, 77, kernel_size=(3, 3), stride=(1, 1), padding=(1, 1), bias=False)
      (bn1): BatchNorm2d(77, eps=1e-05, momentum=0.1, affine=True, track_running_stats=True)
      (relu1): ReLU()
      (conv2): Conv2d(77, 128, kernel_size=(3, 3), stride=(1, 1), padding=(1, 1), bias=False)
      (bn2): BatchNorm2d(128, eps=1e-05, momentum=0.1, affine=True, track_running_stats=True)
    )
  )
)
2023-06-27 20:20:30,172 - block_extractor.py[28] - INFO: save pruned block block-3 (sparsity 0.6) in results/legodnn/image_classification/resnet18_cifar100_0-125/compressed/block-3-6.pt
2023-06-27 20:20:30,172 - block_extractor.py[29] - DEBUG: LegoDNNBlock(
  (layer2): ModuleDict(
    (0): ModuleDict(
      (relu2): ReLU()
    )
    (1): ModuleDict(
      (conv1): Conv2d(128, 52, kernel_size=(3, 3), stride=(1, 1), padding=(1, 1), bias=False)
      (bn1): BatchNorm2d(52, eps=1e-05, momentum=0.1, affine=True, track_running_stats=True)
      (relu1): ReLU()
      (conv2): Conv2d(52, 128, kernel_size=(3, 3), stride=(1, 1), padding=(1, 1), bias=False)
      (bn2): BatchNorm2d(128, eps=1e-05, momentum=0.1, affine=True, track_running_stats=True)
    )
  )
)
2023-06-27 20:20:30,442 - block_extractor.py[28] - INFO: save pruned block block-3 (sparsity 0.8) in results/legodnn/image_classification/resnet18_cifar100_0-125/compressed/block-3-8.pt
2023-06-27 20:20:30,442 - block_extractor.py[29] - DEBUG: LegoDNNBlock(
  (layer2): ModuleDict(
    (0): ModuleDict(
      (relu2): ReLU()
    )
    (1): ModuleDict(
      (conv1): Conv2d(128, 26, kernel_size=(3, 3), stride=(1, 1), padding=(1, 1), bias=False)
      (bn1): BatchNorm2d(26, eps=1e-05, momentum=0.1, affine=True, track_running_stats=True)
      (relu1): ReLU()
      (conv2): Conv2d(26, 128, kernel_size=(3, 3), stride=(1, 1), padding=(1, 1), bias=False)
      (bn2): BatchNorm2d(128, eps=1e-05, momentum=0.1, affine=True, track_running_stats=True)
    )
  )
)
2023-06-27 20:20:30,478 - block_extractor.py[28] - INFO: save pruned block block-4 (sparsity 0.0) in results/legodnn/image_classification/resnet18_cifar100_0-125/compressed/block-4-0.pt
2023-06-27 20:20:30,478 - block_extractor.py[29] - DEBUG: LegoDNNBlock(
  (layer3): ModuleDict(
    (0): ModuleDict(
      (conv1): Conv2d(128, 256, kernel_size=(3, 3), stride=(2, 2), padding=(1, 1), bias=False)
      (bn1): BatchNorm2d(256, eps=1e-05, momentum=0.1, affine=True, track_running_stats=True)
      (relu1): ReLU()
      (conv2): Conv2d(256, 256, kernel_size=(3, 3), stride=(1, 1), padding=(1, 1), bias=False)
    )
  )
)
2023-06-27 20:20:30,706 - block_extractor.py[28] - INFO: save pruned block block-4 (sparsity 0.2) in results/legodnn/image_classification/resnet18_cifar100_0-125/compressed/block-4-2.pt
2023-06-27 20:20:30,706 - block_extractor.py[29] - DEBUG: LegoDNNBlock(
  (layer3): ModuleDict(
    (0): ModuleDict(
      (conv1): Conv2d(128, 205, kernel_size=(3, 3), stride=(2, 2), padding=(1, 1), bias=False)
      (bn1): BatchNorm2d(205, eps=1e-05, momentum=0.1, affine=True, track_running_stats=True)
      (relu1): ReLU()
      (conv2): Conv2d(205, 256, kernel_size=(3, 3), stride=(1, 1), padding=(1, 1), bias=False)
    )
  )
)
2023-06-27 20:20:30,935 - block_extractor.py[28] - INFO: save pruned block block-4 (sparsity 0.4) in results/legodnn/image_classification/resnet18_cifar100_0-125/compressed/block-4-4.pt
2023-06-27 20:20:30,936 - block_extractor.py[29] - DEBUG: LegoDNNBlock(
  (layer3): ModuleDict(
    (0): ModuleDict(
      (conv1): Conv2d(128, 154, kernel_size=(3, 3), stride=(2, 2), padding=(1, 1), bias=False)
      (bn1): BatchNorm2d(154, eps=1e-05, momentum=0.1, affine=True, track_running_stats=True)
      (relu1): ReLU()
      (conv2): Conv2d(154, 256, kernel_size=(3, 3), stride=(1, 1), padding=(1, 1), bias=False)
    )
  )
)
2023-06-27 20:20:31,170 - block_extractor.py[28] - INFO: save pruned block block-4 (sparsity 0.6) in results/legodnn/image_classification/resnet18_cifar100_0-125/compressed/block-4-6.pt
2023-06-27 20:20:31,171 - block_extractor.py[29] - DEBUG: LegoDNNBlock(
  (layer3): ModuleDict(
    (0): ModuleDict(
      (conv1): Conv2d(128, 103, kernel_size=(3, 3), stride=(2, 2), padding=(1, 1), bias=False)
      (bn1): BatchNorm2d(103, eps=1e-05, momentum=0.1, affine=True, track_running_stats=True)
      (relu1): ReLU()
      (conv2): Conv2d(103, 256, kernel_size=(3, 3), stride=(1, 1), padding=(1, 1), bias=False)
    )
  )
)
2023-06-27 20:20:31,403 - block_extractor.py[28] - INFO: save pruned block block-4 (sparsity 0.8) in results/legodnn/image_classification/resnet18_cifar100_0-125/compressed/block-4-8.pt
2023-06-27 20:20:31,404 - block_extractor.py[29] - DEBUG: LegoDNNBlock(
  (layer3): ModuleDict(
    (0): ModuleDict(
      (conv1): Conv2d(128, 52, kernel_size=(3, 3), stride=(2, 2), padding=(1, 1), bias=False)
      (bn1): BatchNorm2d(52, eps=1e-05, momentum=0.1, affine=True, track_running_stats=True)
      (relu1): ReLU()
      (conv2): Conv2d(52, 256, kernel_size=(3, 3), stride=(1, 1), padding=(1, 1), bias=False)
    )
  )
)
2023-06-27 20:20:31,450 - block_extractor.py[28] - INFO: save pruned block block-5 (sparsity 0.0) in results/legodnn/image_classification/resnet18_cifar100_0-125/compressed/block-5-0.pt
2023-06-27 20:20:31,450 - block_extractor.py[29] - DEBUG: LegoDNNBlock(
  (layer3): ModuleDict(
    (0): ModuleDict(
      (relu2): ReLU()
    )
    (1): ModuleDict(
      (conv1): Conv2d(256, 256, kernel_size=(3, 3), stride=(1, 1), padding=(1, 1), bias=False)
      (bn1): BatchNorm2d(256, eps=1e-05, momentum=0.1, affine=True, track_running_stats=True)
      (relu1): ReLU()
      (conv2): Conv2d(256, 256, kernel_size=(3, 3), stride=(1, 1), padding=(1, 1), bias=False)
      (bn2): BatchNorm2d(256, eps=1e-05, momentum=0.1, affine=True, track_running_stats=True)
    )
  )
)
2023-06-27 20:20:31,738 - block_extractor.py[28] - INFO: save pruned block block-5 (sparsity 0.2) in results/legodnn/image_classification/resnet18_cifar100_0-125/compressed/block-5-2.pt
2023-06-27 20:20:31,738 - block_extractor.py[29] - DEBUG: LegoDNNBlock(
  (layer3): ModuleDict(
    (0): ModuleDict(
      (relu2): ReLU()
    )
    (1): ModuleDict(
      (conv1): Conv2d(256, 205, kernel_size=(3, 3), stride=(1, 1), padding=(1, 1), bias=False)
      (bn1): BatchNorm2d(205, eps=1e-05, momentum=0.1, affine=True, track_running_stats=True)
      (relu1): ReLU()
      (conv2): Conv2d(205, 256, kernel_size=(3, 3), stride=(1, 1), padding=(1, 1), bias=False)
      (bn2): BatchNorm2d(256, eps=1e-05, momentum=0.1, affine=True, track_running_stats=True)
    )
  )
)
2023-06-27 20:20:32,025 - block_extractor.py[28] - INFO: save pruned block block-5 (sparsity 0.4) in results/legodnn/image_classification/resnet18_cifar100_0-125/compressed/block-5-4.pt
2023-06-27 20:20:32,025 - block_extractor.py[29] - DEBUG: LegoDNNBlock(
  (layer3): ModuleDict(
    (0): ModuleDict(
      (relu2): ReLU()
    )
    (1): ModuleDict(
      (conv1): Conv2d(256, 154, kernel_size=(3, 3), stride=(1, 1), padding=(1, 1), bias=False)
      (bn1): BatchNorm2d(154, eps=1e-05, momentum=0.1, affine=True, track_running_stats=True)
      (relu1): ReLU()
      (conv2): Conv2d(154, 256, kernel_size=(3, 3), stride=(1, 1), padding=(1, 1), bias=False)
      (bn2): BatchNorm2d(256, eps=1e-05, momentum=0.1, affine=True, track_running_stats=True)
    )
  )
)
2023-06-27 20:20:32,310 - block_extractor.py[28] - INFO: save pruned block block-5 (sparsity 0.6) in results/legodnn/image_classification/resnet18_cifar100_0-125/compressed/block-5-6.pt
2023-06-27 20:20:32,310 - block_extractor.py[29] - DEBUG: LegoDNNBlock(
  (layer3): ModuleDict(
    (0): ModuleDict(
      (relu2): ReLU()
    )
    (1): ModuleDict(
      (conv1): Conv2d(256, 103, kernel_size=(3, 3), stride=(1, 1), padding=(1, 1), bias=False)
      (bn1): BatchNorm2d(103, eps=1e-05, momentum=0.1, affine=True, track_running_stats=True)
      (relu1): ReLU()
      (conv2): Conv2d(103, 256, kernel_size=(3, 3), stride=(1, 1), padding=(1, 1), bias=False)
      (bn2): BatchNorm2d(256, eps=1e-05, momentum=0.1, affine=True, track_running_stats=True)
    )
  )
)
2023-06-27 20:20:32,600 - block_extractor.py[28] - INFO: save pruned block block-5 (sparsity 0.8) in results/legodnn/image_classification/resnet18_cifar100_0-125/compressed/block-5-8.pt
2023-06-27 20:20:32,600 - block_extractor.py[29] - DEBUG: LegoDNNBlock(
  (layer3): ModuleDict(
    (0): ModuleDict(
      (relu2): ReLU()
    )
    (1): ModuleDict(
      (conv1): Conv2d(256, 52, kernel_size=(3, 3), stride=(1, 1), padding=(1, 1), bias=False)
      (bn1): BatchNorm2d(52, eps=1e-05, momentum=0.1, affine=True, track_running_stats=True)
      (relu1): ReLU()
      (conv2): Conv2d(52, 256, kernel_size=(3, 3), stride=(1, 1), padding=(1, 1), bias=False)
      (bn2): BatchNorm2d(256, eps=1e-05, momentum=0.1, affine=True, track_running_stats=True)
    )
  )
)
2023-06-27 20:20:32,650 - block_extractor.py[28] - INFO: save pruned block block-6 (sparsity 0.0) in results/legodnn/image_classification/resnet18_cifar100_0-125/compressed/block-6-0.pt
2023-06-27 20:20:32,651 - block_extractor.py[29] - DEBUG: LegoDNNBlock(
  (layer4): ModuleDict(
    (0): ModuleDict(
      (conv1): Conv2d(256, 512, kernel_size=(3, 3), stride=(2, 2), padding=(1, 1), bias=False)
      (bn1): BatchNorm2d(512, eps=1e-05, momentum=0.1, affine=True, track_running_stats=True)
      (relu1): ReLU()
      (conv2): Conv2d(512, 512, kernel_size=(3, 3), stride=(1, 1), padding=(1, 1), bias=False)
    )
  )
)
2023-06-27 20:20:32,959 - block_extractor.py[28] - INFO: save pruned block block-6 (sparsity 0.2) in results/legodnn/image_classification/resnet18_cifar100_0-125/compressed/block-6-2.pt
2023-06-27 20:20:32,959 - block_extractor.py[29] - DEBUG: LegoDNNBlock(
  (layer4): ModuleDict(
    (0): ModuleDict(
      (conv1): Conv2d(256, 410, kernel_size=(3, 3), stride=(2, 2), padding=(1, 1), bias=False)
      (bn1): BatchNorm2d(410, eps=1e-05, momentum=0.1, affine=True, track_running_stats=True)
      (relu1): ReLU()
      (conv2): Conv2d(410, 512, kernel_size=(3, 3), stride=(1, 1), padding=(1, 1), bias=False)
    )
  )
)
2023-06-27 20:20:33,246 - block_extractor.py[28] - INFO: save pruned block block-6 (sparsity 0.4) in results/legodnn/image_classification/resnet18_cifar100_0-125/compressed/block-6-4.pt
2023-06-27 20:20:33,246 - block_extractor.py[29] - DEBUG: LegoDNNBlock(
  (layer4): ModuleDict(
    (0): ModuleDict(
      (conv1): Conv2d(256, 308, kernel_size=(3, 3), stride=(2, 2), padding=(1, 1), bias=False)
      (bn1): BatchNorm2d(308, eps=1e-05, momentum=0.1, affine=True, track_running_stats=True)
      (relu1): ReLU()
      (conv2): Conv2d(308, 512, kernel_size=(3, 3), stride=(1, 1), padding=(1, 1), bias=False)
    )
  )
)
2023-06-27 20:20:33,522 - block_extractor.py[28] - INFO: save pruned block block-6 (sparsity 0.6) in results/legodnn/image_classification/resnet18_cifar100_0-125/compressed/block-6-6.pt
2023-06-27 20:20:33,522 - block_extractor.py[29] - DEBUG: LegoDNNBlock(
  (layer4): ModuleDict(
    (0): ModuleDict(
      (conv1): Conv2d(256, 205, kernel_size=(3, 3), stride=(2, 2), padding=(1, 1), bias=False)
      (bn1): BatchNorm2d(205, eps=1e-05, momentum=0.1, affine=True, track_running_stats=True)
      (relu1): ReLU()
      (conv2): Conv2d(205, 512, kernel_size=(3, 3), stride=(1, 1), padding=(1, 1), bias=False)
    )
  )
)
2023-06-27 20:20:33,813 - block_extractor.py[28] - INFO: save pruned block block-6 (sparsity 0.8) in results/legodnn/image_classification/resnet18_cifar100_0-125/compressed/block-6-8.pt
2023-06-27 20:20:33,813 - block_extractor.py[29] - DEBUG: LegoDNNBlock(
  (layer4): ModuleDict(
    (0): ModuleDict(
      (conv1): Conv2d(256, 103, kernel_size=(3, 3), stride=(2, 2), padding=(1, 1), bias=False)
      (bn1): BatchNorm2d(103, eps=1e-05, momentum=0.1, affine=True, track_running_stats=True)
      (relu1): ReLU()
      (conv2): Conv2d(103, 512, kernel_size=(3, 3), stride=(1, 1), padding=(1, 1), bias=False)
    )
  )
)
2023-06-27 20:20:33,869 - block_extractor.py[28] - INFO: save pruned block block-7 (sparsity 0.0) in results/legodnn/image_classification/resnet18_cifar100_0-125/compressed/block-7-0.pt
2023-06-27 20:20:33,869 - block_extractor.py[29] - DEBUG: LegoDNNBlock(
  (layer4): ModuleDict(
    (0): ModuleDict(
      (relu2): ReLU()
    )
    (1): ModuleDict(
      (conv1): Conv2d(512, 512, kernel_size=(3, 3), stride=(1, 1), padding=(1, 1), bias=False)
      (bn1): BatchNorm2d(512, eps=1e-05, momentum=0.1, affine=True, track_running_stats=True)
      (relu1): ReLU()
      (conv2): Conv2d(512, 512, kernel_size=(3, 3), stride=(1, 1), padding=(1, 1), bias=False)
      (bn2): BatchNorm2d(512, eps=1e-05, momentum=0.1, affine=True, track_running_stats=True)
    )
  )
)
2023-06-27 20:20:34,255 - block_extractor.py[28] - INFO: save pruned block block-7 (sparsity 0.2) in results/legodnn/image_classification/resnet18_cifar100_0-125/compressed/block-7-2.pt
2023-06-27 20:20:34,255 - block_extractor.py[29] - DEBUG: LegoDNNBlock(
  (layer4): ModuleDict(
    (0): ModuleDict(
      (relu2): ReLU()
    )
    (1): ModuleDict(
      (conv1): Conv2d(512, 410, kernel_size=(3, 3), stride=(1, 1), padding=(1, 1), bias=False)
      (bn1): BatchNorm2d(410, eps=1e-05, momentum=0.1, affine=True, track_running_stats=True)
      (relu1): ReLU()
      (conv2): Conv2d(410, 512, kernel_size=(3, 3), stride=(1, 1), padding=(1, 1), bias=False)
      (bn2): BatchNorm2d(512, eps=1e-05, momentum=0.1, affine=True, track_running_stats=True)
    )
  )
)
2023-06-27 20:20:34,619 - block_extractor.py[28] - INFO: save pruned block block-7 (sparsity 0.4) in results/legodnn/image_classification/resnet18_cifar100_0-125/compressed/block-7-4.pt
2023-06-27 20:20:34,619 - block_extractor.py[29] - DEBUG: LegoDNNBlock(
  (layer4): ModuleDict(
    (0): ModuleDict(
      (relu2): ReLU()
    )
    (1): ModuleDict(
      (conv1): Conv2d(512, 308, kernel_size=(3, 3), stride=(1, 1), padding=(1, 1), bias=False)
      (bn1): BatchNorm2d(308, eps=1e-05, momentum=0.1, affine=True, track_running_stats=True)
      (relu1): ReLU()
      (conv2): Conv2d(308, 512, kernel_size=(3, 3), stride=(1, 1), padding=(1, 1), bias=False)
      (bn2): BatchNorm2d(512, eps=1e-05, momentum=0.1, affine=True, track_running_stats=True)
    )
  )
)
2023-06-27 20:20:35,003 - block_extractor.py[28] - INFO: save pruned block block-7 (sparsity 0.6) in results/legodnn/image_classification/resnet18_cifar100_0-125/compressed/block-7-6.pt
2023-06-27 20:20:35,004 - block_extractor.py[29] - DEBUG: LegoDNNBlock(
  (layer4): ModuleDict(
    (0): ModuleDict(
      (relu2): ReLU()
    )
    (1): ModuleDict(
      (conv1): Conv2d(512, 205, kernel_size=(3, 3), stride=(1, 1), padding=(1, 1), bias=False)
      (bn1): BatchNorm2d(205, eps=1e-05, momentum=0.1, affine=True, track_running_stats=True)
      (relu1): ReLU()
      (conv2): Conv2d(205, 512, kernel_size=(3, 3), stride=(1, 1), padding=(1, 1), bias=False)
      (bn2): BatchNorm2d(512, eps=1e-05, momentum=0.1, affine=True, track_running_stats=True)
    )
  )
)
2023-06-27 20:20:35,345 - block_extractor.py[28] - INFO: save pruned block block-7 (sparsity 0.8) in results/legodnn/image_classification/resnet18_cifar100_0-125/compressed/block-7-8.pt
2023-06-27 20:20:35,345 - block_extractor.py[29] - DEBUG: LegoDNNBlock(
  (layer4): ModuleDict(
    (0): ModuleDict(
      (relu2): ReLU()
    )
    (1): ModuleDict(
      (conv1): Conv2d(512, 103, kernel_size=(3, 3), stride=(1, 1), padding=(1, 1), bias=False)
      (bn1): BatchNorm2d(103, eps=1e-05, momentum=0.1, affine=True, track_running_stats=True)
      (relu1): ReLU()
      (conv2): Conv2d(103, 512, kernel_size=(3, 3), stride=(1, 1), padding=(1, 1), bias=False)
      (bn2): BatchNorm2d(512, eps=1e-05, momentum=0.1, affine=True, track_running_stats=True)
    )
  )
)
2023-06-27 20:25:05,192 - block_trainer.py[183] - INFO: start block training...
